best_model.pth (torch, 547108 bytes, 8 tensors)

network.0.weight f4 [256, 13]
00000000: e8b8 5fbc 3dd6 253e f80c 49bd 754c 75be
00000010: bd19 b3bc 3752 bb3d 187b 033e e4b8 00be
00000020: f1b0 a3bd ecfb 703e d43e dcbd 1774 023e
00000030: 2aa3 3cbe 2b8b 843e cd30 f4bd 7d79 873e
00000040: 45b1 33be 9a3c 333e 48dc 06be c5c1 4f3e
00000050: a75f 013e f054 89be aa0f 90be 6814 983d
00000060: a543 e03d dd82 123d 2e93 253e fe85 d33e
00000070: d9d3 83be 8057 1fbe da19 12be 1b5a 2a3e
00000080: c96b 58be 7507 c3bd f1b0 0a3e d13b 0fbe
00000090: 2778 c1bd 06d2 903d c50b 4b3e 3490 b53d
000000a0: 6392 92be f8dd 75be 65ad f23c 2ff0 773e
000000b0: 8979 d83e 2aea 58be f092 09be fcaf 83bc
000000c0: aebd 343d e448 d43d 8260 47bd 9464 943d
000000d0: 6266 5e3e fb06 8dbe bcad 92be ba87 6c3d
000000e0: bc19 60be 70f2 79be 15a4 61be 0df8 713e
000000f0: 598b 59be 58d3 3a3e 7d29 e13d 01dc 0a3d
00000100: 0a2f 62bd d099 6fbe ef42 c33d 8ab8 e3bd
00000110: edce 643e 2d18 023e bd1f 45bc 5371 3d3d
00000120: 4b9c 733e 174f 5fbe 8b82 353d 2dcc 733e
00000130: 063b 923e c4f6 5ebe c283 b43e 34a8 82be
00000140: 6335 833c 64c1 bcbc ac21 d93c 0d3d 6c3d
00000150: 2779 71be 5229 c4bd 62bb 823e baaf 283c
00000160: 50ed 5c3e 7b7c e93d 7f94 db3d ef0e 9e3d
00000170: 23db c3bd a9e3 36bb f389 0f3e 40a9 81be
00000180: 6ec2 333e aaa0 e43d 040b 9d3d 4e15 01be
00000190: 6b44 afbe ad29 43be 2f0b e33d b8c1 c0be
000001a0: 113d 1cbe 3cc9 023e 50d7 913e 9dfd 57be
000001b0: 5ab6 513d 8263 e13c 4313 713e 2a6e 89be
000001c0: e119 dfbd 4475 8a3e ce00 633e b432 d2bd
000001d0: 98a2 e4bd 5868 da3d c1ee 66bc 7f2e b13e
000001e0: 700d 063e 5209 073e d653 66bb 3b69 65be
000001f0: 66a7 883c 91f4 eb3c bf59 d03d b960 023e
00000200: 8d9a 543e d796 3fbd f658 873e 9ea5 11be
00000210: 01eb 913e 59d2 303e 644d 5fbd ebf6 afbd
00000220: 4481 99be ae46 85be 6ef8 2c3e 5881 103e
00000230: 488e 793e 960d 9fbe 0040 8fbe 16a0 55bd
00000240: effc 44bd 8967 493e e49f 8e3d da24 a03d
00000250: 50ae 29be 9b5d 653e 334c 57be bbb8 8fbe
00000260: 98e9 6b3e cfaf 853d 3fa4 1cbe ff09 4fbd
00000270: 04d7 13be 4eb4 5ebd 14e8 8e3e 195f 683d
00000280: b08e f93b 67f7 273e d62c 3dbd 9f73 08bd
00000290: e113 1a3c 0dce 14ba 40a0 29be 6278 453e
000002a0: cb00 1a3d f7c5 c03e f216 7abd b29e 5cbd
000002b0: dccb 02be c099 4f3a 8947 e6bd 3028 90be
000002c0: 2504 863d 1d31 7a3e 10cc 8a3c ca75 4c3e
000002d0: 7c24 c73d efc4 12be f438 d4bd b879 7ebd
000002e0: 2c6a 14be 2ca9 44be 64f9 70bd 2477 603e
000002f0: ba54 7a3e 6454 99bd 8450 2abd 3eb6 4abe
00000300: 263f e1bd d21a 103e 84a5 b13d 73fc bc3e
00000310: 9b6e 1bbd 5792 25be 468f 673d a860 96bd
00000320: 6225 6f3e d222 563e 27ea 813e 4e65 ea3d
00000330: b1e4 86be b148 6abe 680f 72be 459a 943d
00000340: 7b41 b73d 2a1d 0c3e 3ccf 6ebe 4d3a d3bd
00000350: eae0 80bd e374 d13d b47c c2bd 241b 9b3e
00000360: 8c77 693e 9a39 993d 3fc7 2bbd 1b8d 793e
00000370: 893f ac3e fbfa 47be 261a 02be a1b0 72be
00000380: 8a51 d43c 4f9e 943d 783d 5f3e 71c7 d63c
00000390: 2fe2 75bd 6570 163e cd8b bebc 0dc6 173e
000003a0: 594b 823d b9b8 0dbe 2438 8bbe ef7f 8abe
000003b0: d48a a73e f69c 693e 47e5 1abe 1413 d13d
000003c0: 6b4b 63be 90be bbbd e291 34be 2dde 6c3d
000003d0: e597 2dbe 1b4a 8abd 0193 eebd 8e10 6d3e
000003e0: fa26 0e3e 2a06 0abe 90cc 1c3e 699e 723e
000003f0: 525e 0abe fa8b b63d 013b 46bd c29e 2fbe
-0.013654925 0.16195007 -0.049084634 -0.23954947 -0.021862859 0.091465406 0.12839925 -0.1257053
-0.07992733 0.235336 -0.10754171 0.12739597 -0.18421617 0.25887427 -0.119233705 0.26459876
-0.17548092 0.17503586 -0.13169968 0.20288761 0.12634145 -0.26822615 -0.2813695 0.07425767
0.10950402 0.035769332 0.16169426 0.41313165 -0.25747564 -0.15560722 -0.14267674 0.16635935
-0.21134867 -0.09522907 0.1354406 -0.13987662 -0.09446745 0.07071309 0.19828708 0.08865395
-0.2862731 -0.24010456 0.029623697 0.24212717 0.42280224 -0.21183077 -0.13434958 -0.016075127
0.044126205 0.10365465 -0.04867602 0.07245746 0.21718743 -0.27544388 -0.28648174 0.057746626
-0.21884817 -0.24408889 -0.22035249 0.2362978 -0.21244563 0.18244684 0.109942414 0.03390122
-0.05522064 -0.23398519 0.09534251 -0.111191824 0.22344561 0.12704535 -0.012031493 0.046250653
0.2379009 -0.21807514 0.04431395 0.23808356 0.28560656 -0.21773821 0.35256773 -0.25518954
0.016016668 -0.023041435 0.026505314 0.05767541 -0.23581372 -0.09578194 0.25533587 0.010295803
0.21574903 0.11400696 0.10721683 0.07717692 -0.095632814 -0.0027906692 0.14017467 -0.2532444
0.17554638 0.11163457 0.07668117 -0.12605783 -0.34231886 -0.19058867 0.110861175 -0.37647796
-0.1525767 0.12772077 0.28484583 -0.2109284 0.051199295 0.02751327 0.23542504 -0.2684186
-0.10893608 0.27042592 0.22168276 -0.10263577 -0.11163825 0.10664433 -0.014095009 0.34605786
0.13091063 0.13187149 -0.0035145185 -0.22403423 0.016681384 0.028803142 0.10173368 0.1273221
0.20762081 -0.04677471 0.2643506 -0.14223334 0.28499606 0.17267741 -0.054517165 -0.08592018
-0.29981434 -0.26030487 0.16891643 0.1411184 0.24370682 -0.31065053 -0.27978516 -0.052154623
-0.04809278 0.19668402 0.069640905 0.07819529 -0.16570401 0.22398989 -0.21025161 -0.28070626
0.23038328 0.065276735 -0.1529703 -0.050546642 -0.1443749 -0.05437117 0.27911437 0.056731317
0.0076158866 0.1640297 -0.046185337 -0.03331339 0.009404154 -0.0005676456 -0.16565037 0.19284204
0.037598412 0.37651035 -0.06105704 -0.05386228 -0.12773079 0.0007919334 -0.11244113 -0.2815566
0.06543759 0.24432798 0.016943008 0.19966808 0.09723756 -0.14332937 -0.103624254 -0.0621278
-0.14493626 -0.19205159 -0.058831587 0.21920449 0.24446383 -0.07486799 -0.041580692 -0.19796082
-0.10998373 0.14072731 0.08674148 0.36911353 -0.03794728 -0.16169105 0.05653312 -0.073426545
0.23354104 0.2091172 0.25373957 0.114451036 -0.26346353 -0.22879292 -0.2363869 0.07255987
0.08948036 0.13683 -0.23321241 -0.10313854 -0.06292899 0.102273725 -0.094964415 0.30294144
0.2279951 0.0748169 -0.041938063 0.24370234 0.33642223 -0.19529335 -0.12705287 -0.23700191
0.025917787 0.072567575 0.21800792 0.026218148 -0.06003016 0.14691313 -0.023260022 0.14821644
0.06362028 -0.13839997 -0.2719127 -0.2705073 0.32723105 0.22813782 -0.15126525 0.10208717
-0.22196738 -0.09167206 -0.17633775 0.05782907 -0.16952474 -0.06752416 -0.116491325 0.23150846
0.13882056 -0.13478914 0.1531241 0.23693241 -0.13512543 0.08913417 -0.048396114 -0.17150405

network.0.bias f4 [256]
00000000: 133c 6ebd 5560 683e b052 ad3d 17e0 703d
00000010: ccda a23e 07ab 0fbe c353 7ebd a5dc 5f3e
00000020: bc88 c93d 3359 213d a4e8 b3bd d431 d2bd
00000030: 929a 093e a6e4 893d 28f2 7bbe 227d 3a3e
00000040: 016c 3fbe 064e 893e 85e2 e03c cc15 9ebd
00000050: 3534 bebd bf73 923e 09d4 e8bc ff2a 923e
00000060: 8e59 43be 664a a6bd b213 513d d178 3dbe
00000070: 3740 233e f933 123e e85c a63d ddb5 8f3e
00000080: cf69 053e 908b 893e 7a6e 1cbe f500 413e
00000090: b879 073e 71d9 c1bd cd1f 01be d241 403d
000000a0: 7fb9 7dbe 8a4b 973e e535 a33d 2454 713e
000000b0: b77c e53d 1efb 753c eb39 07bd ea87 033e
000000c0: 5868 26be a00e 523e 10ea 12be 68fb 6dbe
000000d0: 1f04 893e e800 07be 9c41 df3d 4522 e13d
000000e0: 7285 493d 4551 f8bd 3e73 833e e306 ecbd
000000f0: ebf0 08be 0f25 243e 62bf efbd f9bc 24be
00000100: 79cf 393d cdba 88be 9998 2fbd 6163 af3d
00000110: 7a52 7bbe 1b1a 923d e8f2 163e 9b32 4d3d
00000120: c46a 973e affd 95be c6bd 3b3e 646a 153e
00000130: e9c9 993e 3072 eb3d 5113 ee3d c791 d93d
00000140: 44a1 5f3c 6e15 1dbe 0bbb 283e 180b 873e
00000150: 541b 9d3d a428 6839 1b54 adbc cfa8 9bbe
00000160: c3d6 7abd f8d1 90bc 8ef8 873e 665f 7fbe
00000170: 97a7 5ebe ceae f9bd 5a4a e83b 6105 e0bd
00000180: 5ccf 8dbe 47f9 9fbd d022 4c3d dad6 eb3d
00000190: c7b9 683d c258 0e3e cb9e 0d3e f933 1cbe
000001a0: f161 573e 9582 22be 7b9a 3f3d afe1 fa3c
000001b0: 867c 373d 9eaa b7bd 1ff7 d73d 9409 65be
000001c0: 57a7 cebd 8b09 883e 16dc 8c3e 153d 7cbe
000001d0: 779c 3dbe a114 e5ba 7d4f 8b3d 61ec 1bbe
000001e0: f00f a5bd 0e0d 4cbe 07b6 aa3d db09 f33b
000001f0: 8337 803e 54df 7dbe bd78 363d 3c7c 8d3d
00000200: 8f72 513e c714 bbbd c3c3 8cbd 1c67 5bbe
00000210: 0575 3b3e ef6c de3c 55bd eabd 97e6 4abe
00000220: 181b 3c3e 6756 55be 5dce 54bd 1871 1cbe
00000230: 86de d93d 5119 63bd 7bcd e0bd 9194 123e
00000240: 174d dcbd 8db9 85bd 08e0 a63e 5bf3 5d3e
00000250: 26f7 7f3c e75d 6bbe 696d 023d 7ad9 02be
00000260: 00cb e73d 0316 8abd 41d7 213e 76b5 cdbd
00000270: 76ef 553e d4c5 413e bda4 c63d bc4f 84bd
00000280: 3853 6a3e ac92 51be 2333 85bb a604 aebd
00000290: cbcf 793e 22be cf3d a8f6 54be 980d cbbd
000002a0: d289 663e 47ac ec3d d911 7b3e d12b 583d
000002b0: bc0c 2bbe 77ae 99bc bdb1 933e 27e8 6e3d
000002c0: 83b8 c83d f29a 71bd b37f 043d 1f86 80be
000002d0: 6e0d 2bbe 0c16 88bd 0dd1 943c aa86 26bd
000002e0: d8f5 4e3e baeb 163e 83ec e4bd aea6 463e
000002f0: e4ed 62be 8007 0cbe 6210 41be 1513 723e
00000300: 547a 6fbe 86ca 253e 32db 9e3d 93ee f63d
00000310: ad2b 49bd 3edd 933e d80a 483e a364 703e
00000320: 7cee e0bd 8f9a 86bc f2b7 833d 5a89 e4bd
00000330: 6300 0a3e 6cd4 ee3c b5cb 103e 17b6 173e
00000340: 0cda 033c 47ad e43d 487d 24be fce6 033e
00000350: f0f9 15be 560d f4bd 36a1 353d 7bf3 b5bd
00000360: a0b0 0fbc f8b7 5a3e 1982 b33d f420 fe3d
00000370: 030f 21be c8ca 82be 7db5 493e c893 a23e
00000380: d9ae fabd d76b 1dbe 8be1 17be 47b3 93be
00000390: 6356 aabc e7bf 323d f238 40be 71d0 7cbe
000003a0: b008 643e b76d 933d def8 2abc 837e f2bd
000003b0: d533 e73c d73f 4fbd 3de4 5d3e 4229 d9bd
000003c0: 148a 64be a808 bbbd 8098 333e 99ab 5b3c
000003d0: e9d3 32be dc54 543e 9691 68be 59c8 753e
000003e0: 8e0c 023c 674a 25be 7dc1 c73e b275 753e
000003f0: 903c 913e 4d34 55be 9c04 c63e b890 f43c
-0.05816276 0.22692998 0.08463037 0.05880746 0.31807554 -0.14030086 -0.0620916 0.21861513
0.09840533 0.039391708 -0.08784607 -0.1026341 0.1343787 0.06733064 -0.24604094 0.18211797
-0.18693544 0.2681734 0.027451763 -0.07719001 -0.092873015 0.28603932 -0.028421419 0.28548428
-0.19077131 -0.08119659 0.051044174 -0.18503119 0.15942465 0.14277638 0.08123189 0.28068438
0.13028644 0.2686429 -0.15276518 0.18848021 0.13230026 -0.09465302 -0.12609787 0.04693777
-0.24777792 0.2954982 0.07969264 0.23567253 0.11205428 0.015013484 -0.03301422 0.12844816
-0.16250741 0.20513391 -0.143471 -0.23240435 0.26760957 -0.1318394 0.10901186 0.109928645
0.04919953 -0.12124876 0.2567386 -0.11524751 -0.13373153 0.16029762 -0.11706425 -0.16087712
0.045363877 -0.26705018 -0.042870138 0.08563877 -0.24543181 0.071338855 0.14741099 0.05009709
0.29573643 -0.29295108 0.18334112 0.14591366 0.30036858 0.11496389 0.11624778 0.10623508
0.013649289 -0.15340206 0.16477601 0.2637565 0.07671228 0.00022140384 -0.021158269 -0.30402228
-0.06123997 -0.017678246 0.2655682 -0.24938735 -0.21743618 -0.121915445 0.0070889415 -0.10938526
-0.27697265 -0.07811218 0.049837887 0.11515589 0.056817796 0.13901046 0.13830106 -0.15254201
0.21033455 -0.15870126 0.046778183 0.030625192 0.04479649 -0.089680895 0.105451815 -0.22366935
-0.10090511 0.2656978 0.27511662 -0.24632676 -0.18516718 -0.0017477461 0.068022706 -0.1522689
-0.080596805 -0.19926855 0.083355 0.0074169463 0.25042352 -0.24792224 0.04454874 0.069084615
0.20453857 -0.09134822 -0.06873276 -0.21426052 0.18306358 0.027151553 -0.114618935 -0.19814526
0.1836971 -0.20833741 -0.051954616 -0.15277517 0.10638146 -0.055444065 -0.10976692 0.14314486
-0.10756891 -0.06529532 0.32592797 0.21674864 0.01562289 -0.2298504 0.031842623 -0.12778273
0.11318016 -0.0674248 0.15804769 -0.100443766 0.20892128 0.18923122 0.0969939 -0.064605206
0.22883308 -0.20466107 -0.004064934 -0.0849698 0.24395673 0.10143687 -0.20797217 -0.09914702
0.22513512 0.11556297 0.24518527 0.05277616 -0.16704077 -0.01875995 0.2884654 0.058326866
0.09800818 -0.058985658 0.032348346 -0.25102326 -0.16704342 -0.0664483 0.01816609 -0.04065577
0.2021097 0.1473836 -0.111779235 0.19399521 -0.2216106 -0.13674736 -0.18853906 0.23640092
-0.23386508 0.16190538 0.07756652 0.12057223 -0.049113918 0.28879732 0.19535387 0.2347589
-0.10982987 -0.016431121 0.06431569 -0.1115901 0.1347671 0.029154025 0.14140208 0.14815556
0.008047592 0.111658625 -0.16063416 0.12881082 -0.14646125 -0.11916606 0.044343196 -0.08884331
-0.008770138 0.21359241 0.087650485 0.12408629 -0.15728383 -0.25545335 0.19698139 0.31753373
-0.12240381 -0.15373169 -0.14832132 -0.28847715 -0.020793146 0.043640044 -0.18771723 -0.24688889
0.22268939 0.07198661 -0.010435311 -0.118405364 0.028222958 -0.05059799 0.21669097 -0.106035724
-0.22318298 -0.091325104 0.17538643 0.013407611 -0.1746365 0.20735496 -0.22711787 0.24002208
0.007937564 -0.16141663 0.39014807 0.23970678 0.28366518 -0.20820732 0.38675392 0.029854164

network.2.weight f4 [256, 256]
00000000: 9028 5abc 3717 5fbd bab2 453d af19 93bd
00000010: 0b4a 0b3d d329 6fbd 80b0 4cbd a6f7 56bd
00000020: e576 28bc 1e86 51bd 04bd 073d e4e9 22bd
00000030: 34a5 473d cc4f 2d3c 0082 e339 427d 0abd
00000040: 0093 033a b6fc 81bd 94a0 973c b028 5e3c
00000050: 5af7 32bd 6e63 a63a 3807 133c a426 c83c
00000060: 43da ab3c fe7f 26bd a311 8e3c a97b 8fbd
00000070: 1632 7fbd a515 003d 2a1e ec3c 8c91 243c
00000080: 6ea2 1c3d c0ee 743b 34a4 2c3d ee65 a7bd
00000090: 265d 3fbc b044 bdbb 0c5f 5cbd 44b2 093d
000000a0: 8eff 61bd 72bb 833c 514a a1bd fee1 75bd
000000b0: 8a9c 88bd 41a1 a6bd a819 013d 8cb7 a03c
000000c0: f19f dbbc 33d2 203d 10fb 64bd b451 95bc
000000d0: e135 06bc 5a63 0cbd 07ea d3bc 13aa acbc
000000e0: 8028 083c e337 b2bc 0055 f33a 107d e03b
000000f0: a5da 1d3d 4464 3cbd 3ba2 f0bc e08d b4bb
00000100: 7844 313c 1b27 1cbd 20ae 61bd 5153 4cbc
00000110: 8a77 1dbd a705 9abd 60c3 5cba 3a43 83bd
00000120: 83ab 83bd 4295 563d 0dbe 2cbb 8c56 18bd
00000130: 13d8 f03c 9ad5 dcbc 580c 26bd 24b7 3dbd
00000140: 6320 b33c 10a0 a93b d5e0 94bd 8cc9 88bd
00000150: 1cbe 16bd 3e67 fdbc 2821 12bc b848 6abc
00000160: 7c4d 26bd 9963 73bd 67fb a23c 0033 f33a
00000170: ec46 a63c 74c0 4f3d 541f e3bc 4838 2ebc
00000180: d7ed 28bc e6ca 82bd 40ea 5abd b1d5 ccbc
00000190: 0009 81bd 1ac4 3fbc d387 863c dc7d 3abd
000001a0: bca6 a5bd 380a 1ebd 4785 50bd f947 ffbc
000001b0: 837d a8bc bd24 6cbd 202d 163d 48f0 7abc
000001c0: 4853 62bd 13f0 603c 342a 9bbd 66df 6f3d
000001d0: d4bd 55bd e113 36bd 51cc 843c 5b94 c4bc
000001e0: c09c 893b 7047 c1bc b0a5 fc3b 044a f3bb
000001f0: d92e 73bd 8098 63bb d063 99bd 32ec c33a
00000200: f368 0b3d 80e1 13bd fc02 953c b8f4 aabc
00000210: 18ca dabc 24a1 cdbc d6ea 25bd 369b 143d
00000220: 9345 243d be0d 3cbd 06a0 32bd e6b3 6abd
00000230: 911d 77bd 1703 de3c 40c7 a93c 40a1 89bb
00000240: 6a7a 0ebd 34a6 8bbc 8785 aebd 518f 1dbd
00000250: 4600 e23c a005 513b 21e8 29bd c3a4 1c3c
00000260: 5505 203d 7054 ea3b 9e98 4bbb 2bee 0ebb
00000270: 686f 16bd cd8a 30bd b67c 693d 8850 9fbd
00000280: 77e6 ef3c a0ea 3cbd 47ce 9dbc 0876 49bc
00000290: 5bfa 21bd a05a 5dbc c6db 42bd 68f0 723d
000002a0: 4865 d6bc d477 9fbd b058 24bc c430 763d
000002b0: be11 94bd 2208 243d 742c 253d 0d75 26bd
000002c0: f930 183d 10a7 96bb 9014 83bd e00d 4ebc
000002d0: 70d5 21bc df62 363c 5c1f c2bc 241b 40bc
000002e0: 102a 273d 0daf 6abd 5c1c 53bd 18c5 c5bc
000002f0: a8ab bcbc b4ed 62bd d842 2fbd 2b98 02bd
00000300: 5091 25bc 962f a3bd 2fd6 bcbc 4085 e33a
00000310: 64cd b5bc 447d 38bd 89a4 f23c 4fa9 393d
00000320: 0c4f f23c 046e 153d 9c07 c2bc 04ae 96bd
00000330: f4cd 5bbd 3ec3 a2bd 2b05 a13c 2efb 3dbd
00000340: 6c57 2d3d d645 88bc 8468 1e3d 1480 3d3d
00000350: 81f9 253d e007 083c cd55 27bd 481b 133d
00000360: 4ada 39bd 40ef 873c 1800 cabc 8aa2 12bd
00000370: ec20 fa3c d059 60bd ae24 8cbd 5ba2 063d
00000380: 607b 7e3b 8103 d03b 00f0 88bc e076 6c3d
00000390: 9c16 1fbd 43dd ffbc 5ead e63b 08b2 52bd
000003a0: eb1d be3c f203 443d d2d7 5bbd b8ef d53c
000003b0: 67c1 093d bfc4 8c3b 9587 02bc 61e9 6bbd
000003c0: cc76 0b3d 88c9 debc 0aac 493b 28f2 24bd
000003d0: 1042 73bc 68e9 3b3d c4c3 2c3d 7fa5 77bc
000003e0: 5aac 65bd 7a57 2b3d 0172 053d 5f03 7a3c
000003f0: 623b f03b 12cd 39bd 84fe 093d 6122 083d
-0.013315335 -0.0544655 0.04826615 -0.07182633 0.03400616 -0.058389496 -0.04997301 -0.05248227
-0.010282253 -0.051153295 0.033139244 -0.039773837 0.048741534 0.010578107 0.00043393672 -0.03381086
0.0005019158 -0.06347029 0.018509187 0.013559505 -0.043692924 0.0012694427 0.008973889 0.024432488
0.020978099 -0.040649407 0.017342394 -0.07006008 -0.062303625 0.03127064 0.028822977 0.010044467
0.038240843 0.0037373751 0.042148784 -0.081737384 -0.011679923 -0.0057760105 -0.05380158 0.033617273
-0.055175357 0.016080592 -0.07875503 -0.060029976 -0.066704825 -0.081362255 0.03151861 0.019618772
-0.026809664 0.03926296 -0.055903494 -0.018227436 -0.008191557 -0.034274437 -0.025868429 -0.021077191
0.008310437 -0.021755164 0.0018564761 0.006850846 0.038538594 -0.04599406 -0.029374233 -0.005510077
0.010819547 -0.03812323 -0.0550977 -0.012471036 -0.03844408 -0.07520609 -0.0008421447 -0.06409307
-0.06429198 0.052388437 -0.0026358396 -0.037191913 0.029399907 -0.026957322 -0.040539116 -0.046317235
0.02186603 0.0051765516 -0.07269446 -0.06679067 -0.036802396 -0.030933019 -0.008919038 -0.014299564
-0.04060124 -0.059421156 0.019895269 0.0018554628 0.02029749 0.050720647 -0.0277249 -0.010633536
-0.010310612 -0.06386356 -0.053446054 -0.02500424 -0.06300545 -0.011704469 0.016422188 -0.045530185
-0.08088443 -0.038583964 -0.050908353 -0.031162249 -0.020567661 -0.057652224 0.03666413 -0.015316077
-0.055255204 0.013729113 -0.07576409 0.05856266 -0.052182987 -0.04445255 0.016210707 -0.023996523
0.0041995943 -0.023593634 0.007710181 -0.007424595 -0.05937085 -0.0034728348 -0.07489741 0.0014947711
0.034035634 -0.036103725 0.0181899 -0.020868644 -0.026707694 -0.025101252 -0.04050716 0.036280833
0.040105414 -0.045911543 -0.04360964 -0.05730047 -0.06033093 0.027101083 0.020724893 -0.0042001307
-0.034784712 -0.017047025 -0.08521562 -0.038466755 0.027588021 0.0031894222 -0.04148114 0.009560767
0.039067585 0.007151179 -0.0031066309 -0.002180944 -0.03672734 -0.04310112 0.0570037 -0.07779032
0.029284699 -0.046122193 -0.0192634 -0.012296207 -0.0395454 -0.013510376 -0.047572874 0.0593113
-0.026171342 -0.07786527 -0.01003091 0.0601051 -0.072299466 0.04004682 0.040325597 -0.040638972
0.03715608 -0.004597552 -0.06400406 -0.01257655 -0.009877548 0.011131971 -0.023696594 -0.011725221
0.0408116 -0.057295848 -0.051540717 -0.024141833 -0.02303107 -0.055402473 -0.042788357 -0.0318834
-0.010105446 -0.07968061 -0.02305135 0.0017358437 -0.022192664 -0.045041338 0.029619472 0.04532748
0.029578708 0.036481872 -0.023685269 -0.073574096 -0.05366321 -0.07947396 0.019655785 -0.04638212
0.0423197 -0.016634863 0.038673893 0.046264723 0.04052115 0.008302659 -0.04085331 0.03591469
-0.045374192 0.016593575 -0.024658248 -0.03579954 0.030533276 -0.054773152 -0.068429336 0.032869678
0.0038830861 0.006348074 -0.016716003 0.057730556 -0.03883992 -0.031233435 0.00703971 -0.051439315
0.023207625 0.047855325 -0.05367262 0.026115283 0.03363171 0.004295915 -0.007966896 -0.057595614
0.03404884 -0.027195707 0.003077271 -0.04027 -0.0148472935 0.04587689 0.042178884 -0.015115141
-0.05607257 0.04183147 0.032579426 0.015259593 0.0073312977 -0.045361586 0.03368999 0.03323591

network.2.bias f4 [256]
00000000: 027b 82bc 8ed0 3d3d aafd 873c a40f 873d
00000010: f3bc 303d 229b bcbc 4283 c0bc 94c3 003d
00000020: 0dd1 f6bc 3a04 abbc aad2 a1bd 9013 2c3d
00000030: 5b63 93bd b60e 323d 7feb 18bc 5047 80bc
00000040: 0b67 8dbc fa62 ad3d 73e3 8f3d fb74 0cbd
00000050: c6bb ef3c 07de 713d 7165 3a3d bd74 373d
00000060: 7fc6 9c3d 233f b8bd 1167 623d cbe5 32ba
00000070: cedf 59bb 352a 0fbd b495 223d 6e42 92bc
00000080: 391f b03b d975 9ebd 548e 0c3d 0fb3 b3bd
00000090: 0cc2 823d 020d ccbc 166b 2cbd 170a b53d
000000a0: 3a07 ba3d 4a38 873d 1c22 e43b 7ad8 433b
000000b0: 86b7 83bc 2186 8b3d fbad 14bd 2f36 3f3c
000000c0: c3ef 4c3d 167c 913d 6cf6 bd3d beef f3bb
000000d0: 53e8 0c3d 385f 233d 3f4b 9e3d 7fad 64bc
000000e0: fd14 6b3c 9db6 063d 2d0d 33bd 7645 393c
000000f0: 8c64 1d3c 10f9 953c 0db7 893d 9ade 8cbd
00000100: 1760 8d3d b914 6a3b 0b22 b13d 4a29 e6bc
00000110: a0a4 9b3d 6b06 743d 048e 403d a05a 57bd
00000120: 1a2b dabc a31f 6dbd ea31 1a3d d4bc 81bd
00000130: b641 ae3d dbe0 ed3c 670e 353d a75e 1dbd
00000140: 3f59 893a b17e 873c 6714 693d 1754 35bd
00000150: 5cb9 113d 5158 953c 45dd b23d fa31 24bd
00000160: aae3 4abd 882d a83d ab34 eabb 8bb9 8e3d
00000170: 2579 d23c 8a72 843a 8d5b 01bd db6a e33b
00000180: f93a f43c b856 463c 3224 8d3d 0e2b 08bd
00000190: 4646 c4bc 45ef 943c d0e4 b0bc f960 4fbd
000001a0: 15e4 283d 6665 37bd ab4e bf3c c866 a43c
000001b0: 2601 ee3c 68ac a23d 0ce0 453c 8443 423c
000001c0: a622 36bd 6799 01bd de21 bebc 81be 973d
000001d0: e65a 043d cbd0 51bc 86f6 4a3d 8f06 3c3d
000001e0: f14c b73c 7e58 a03c d8f2 f0bc e7ba 88bd
000001f0: 4aaa 97bc 877d 2cbc 0d12 f8bc 2eb7 813d
00000200: e8db 65bd f381 9e3d d0f6 cb3d 9078 a13d
00000210: 7ad1 153c 8052 efbc d374 d6bc dfd8 ee3c
00000220: f487 5e3d 700f 2dbd b5e5 36bd 1fd0 47bb
00000230: 0115 96bc ddf4 63bd b3ca 6e3d 7c41 8dbb
00000240: e21a f53c a631 01bc 866e a8bc 6a46 ad3c
00000250: 1edc 01bc 5754 843d 26a7 0e3d 86a9 2abd
00000260: 7390 99bd 9c0c 933c 93d8 253d 4168 053b
00000270: 2bcd febc 4129 e0bc e4e3 463d 9764 803d
00000280: e43a 1cbd b293 d03c 0c3a 6abc 5642 ca3c
00000290: 40b8 ce3a 8cce 7c3c b9e8 debc 9f03 33bd
000002a0: 7fec af3c 9b31 60bb 93e6 87bc 161a a0bd
000002b0: 3e25 c33d 17d5 35bd d5f2 c6bb 284d 02bd
000002c0: 131c 84bc 6acd 1b3d cd74 b73c 1064 ecbc
000002d0: 409d 5c3d 6488 473c f5bc 26bd 7b21 383d
000002e0: d075 a03c 9f80 ad3d 69ab 2cbd 46f3 353d
000002f0: 2dbb 083d 776b b83c e304 1c3d 4b43 7d3c
00000300: af33 213d 577e 2b3d 466a 103d d7b9 033d
00000310: 6fa4 28bd 04ac 9a3d d23d b4bc 0ec3 fdbc
00000320: 5bfc 9dbc 7cd5 2dbd 8dc5 7f3d 3b41 b2bb
00000330: c9ce 89bd 1b4b 023d b3c9 1e3d 6bfd 9a3d
00000340: 9c97 74bd bf18 4e3b e484 10bd e75b c03d
00000350: 3a8c 5bbc d461 283d b086 c43b 9ca5 82bd
00000360: 671b 32bd 3854 843c 6501 be3d d6cf 063d
00000370: 51bb 063c 6e2c 2a3c 7dea 123c 3dc1 943d
00000380: 2005 f1bc 341a 47bd 15cd 7a3d 5864 773d
00000390: 3d3b 4d3d ed44 cdbc b517 9fbc 1f66 073d
000003a0: adcd bd3c 820c 3abd ea11 8abb c252 8e3d
000003b0: f563 84bd d51e b2bd b92c 743b 6105 1cbd
000003c0: b21c 96bc a37c b03c 36a5 fe3c f2c7 40bd
000003d0: f88e 3ebc 206f 8bbd 3452 15bd c2e4 c63c
000003e0: f779 4fbd a3e6 353d e9fc 4cbd 1f1d d13b
000003f0: 0c9d ab3c 2be2 163c 7bbe 25bd f1e0 453d
-0.015927795 0.04634147 0.016600449 0.0659478 0.043148946 -0.023023192 -0.023500089 0.031436518
-0.03012898 -0.020876039 -0.07901509 0.042010844 -0.07196685 0.04347106 -0.00933349 -0.015659004
-0.017261049 0.08466144 0.07025804 -0.03429125 0.029264342 0.059049632 0.0455069 0.044789065
0.076550476 -0.089964174 0.055274073 -0.0006824403 -0.003324497 -0.03495236 0.03969355 -0.017853942
0.005374816 -0.077373214 0.034315422 -0.08774387 0.06384668 -0.024908546 -0.042094313 0.08839815
0.090834096 0.06602533 0.006962074 0.0029883669 -0.016078722 0.068126924 -0.036298733 0.011670633
0.050033342 0.07103746 0.09275517 -0.007444351 0.03440125 0.03988573 0.07729196 -0.01395738
0.014348266 0.032888997 -0.043713737 0.011308065 0.009606492 0.018307239 0.06724367 -0.068783954
0.06903093 0.0035717918 0.08649071 -0.02809586 0.07599759 0.059576433 0.047010437 -0.05257666
-0.02663188 -0.0578915 0.037645258 -0.06334844 0.08508627 0.029037884 0.04420319 -0.038420346
0.0010478868 0.016539903 0.056904223 -0.044269647 0.035577163 0.01823059 0.0873361 -0.040086724
-0.049533524 0.082118094 -0.007147392 0.06968983 0.025692532 0.0010104936 -0.03158145 0.0069402284
0.029813277 0.012105636 0.06891669 -0.033244185 -0.02395929 0.018180499 -0.021593481 -0.05062959
0.04123314 -0.044774435 0.023352941 0.020068541 0.029053282 0.0794304 0.012077343 0.011856917
-0.044466637 -0.031640437 -0.023209509 0.074093826 0.03231325 -0.012806128 0.04955151 0.045904692
0.022375556 0.019573446 -0.029412672 -0.06676274 -0.018513817 -0.010527975 -0.030282045 0.06333767
-0.056117922 0.077396296 0.09959185 0.078843236 0.009144181 -0.029214144 -0.026178753 0.029156147
0.054328874 -0.04225105 -0.04465266 -0.003048904 -0.018320562 -0.05565344 0.058298778 -0.004310785
0.029920045 -0.007885372 -0.020560514 0.02115174 -0.007926015 0.06461399 0.034827374 -0.041665576
-0.074982546 0.017950349 0.040489744 0.002035633 -0.031103691 -0.027363421 0.048557177 0.06269186
-0.0381421 0.025461052 -0.014296066 0.024689835 0.0015771464 0.015430104 -0.02721058 -0.043704625
0.021475075 -0.0034209255 -0.016589439 -0.078174755 0.09528588 -0.04439267 -0.0060714283 -0.031811863
-0.016126668 0.038037695 0.022394562 -0.028856307 0.053860903 0.012178514 -0.040707547 0.044953804
0.019587427 0.08471798 -0.042155657 0.044421457 0.03338163 0.02251218 0.038090598 0.015457938
0.03935593 0.041868534 0.0352576 0.032159653 -0.04117244 0.075523406 -0.022002134 -0.030976798
-0.019285372 -0.042439923 0.06244426 -0.005439905 -0.06728894 0.031809907 0.038766574 0.07567867
-0.0597149 0.0031447855 -0.035282984 0.09392529 -0.013400132 0.04110892 0.0059975013 -0.06379244
-0.043483164 0.01615344 0.0927761 0.03291305 0.008223371 0.010386569 0.008967039 0.0726342
-0.02942139 -0.048608974 0.061230738 0.06039843 0.050105322 -0.02505728 -0.019420484 0.033056375
0.023169363 -0.045422085 -0.0042135613 0.069493786 -0.06464378 -0.08697287 0.0037258102 -0.038091067
-0.01832423 0.021543806 0.031084638 -0.047065683 -0.011630766 -0.06808305 -0.036455348 0.024279002
-0.050653424 0.044409405 -0.05004588 0.0063816453 0.02094891 0.009209196 -0.04046486 0.048310224

network.4.weight f4 [256, 256]
00000000: 30f7 e53c 6b4a 55bd 2294 2d3d 4980 2e3d
00000010: f93a c6bc 54f5 35bd 3786 b8bc 1d77 54bd
00000020: 124d e73c 9778 723d 24c0 51bd 0431 bd3b
00000030: 4638 123d 2fad ac3c a5f2 3a3d 04ab e2bc
00000040: 4449 cabc d12d 84bd a823 2ebd f05e e93c
00000050: 63ac f93b 53c7 4c3d 78df c6bc 489a 95bc
00000060: a1ac cabc 04da e8bc 9360 683c a508 2cbd
00000070: deba 013d 00c7 5aba 90ad 56bd b091 593d
00000080: 704b 4b3c 3ffd 2e3d 7cf7 23bd 5ca8 87bc
00000090: 929b dbbc 9249 793d 449e 883c c00d 8a3a
000000a0: 55f2 21bd 8c77 b4bb 51ee 7abb 74db b33c
000000b0: db4f 553d 4e0a 073d 6cc1 83bc 84fa 16bd
000000c0: dc19 e1bc 83cc b9bc a0f1 083c 6288 973c
000000d0: 773d 58bd 5d31 d1bc c891 2cbc ec4f 663d
000000e0: 7a92 62bd 6054 7fbc 00fe c0bb 7cb7 2c3d
000000f0: ea4c 0fbd 0f36 053d 2b59 47bd 7a71 143c
00000100: f4ed bdbc f288 7e3b e7fe 453c 8d4b 58bd
00000110: 818c 5cbd 9651 c7bc 983c 0fbd bcc1 453d
00000120: fc3b 25bd a1d7 28bd c04b 693c 6937 033d
00000130: 1c89 d3bc 0587 a53c 333f ca3b 787b 603c
00000140: 75cb 80bd b862 75bb 90bb 99bc 2058 733b
00000150: f900 8cbc 527d 1ebd c87b ec3a 2ce4 e2bc
00000160: 5581 5f3d 735b 1f3d e790 4cbd 5420 dbbc
00000170: f199 0f3d 90c1 b03c 06f5 193d 0925 7dbc
00000180: 7944 a83b 3173 57bc ec8c 133d 40be d83b
00000190: 8c5d fc3c fc41 0cbd c884 553c dffd 2f3d
000001a0: d121 4dbd 3016 bbbb b37c ba3c ace7 88bc
000001b0: ce4b 653d cc48 e0bc 64bf 87bc a85c 713d
000001c0: 2ed1 e53c cd90 4dbd 7714 d53c 78b4 35bd
000001d0: 1b30 5d3d 6e2a 80bd f69e 743d 7c9c ec3c
000001e0: d26f 1d3d 7cc6 63bc ca3d 333d 5487 3f3d
000001f0: 2bfb 3fbd ab77 913c 6588 9c3c c7af 24bd
00000200: 2deb 5e3d 5375 4f3d bf02 ccbc f797 01bd
00000210: 2fc0 48bd 903f 453d c35f 893d c850 ae3c
00000220: ffda 8fbc a68d 11bd cc56 573d ff7d 4fbc
00000230: 9a86 473d 7178 0dbd 9f47 443c 78ce 203c
00000240: 45f9 d83b e866 25bc 0692 b0bc 7448 c0bc
00000250: 116f e13b 4811 e53c f13c 0a3d 00b9 903a
00000260: 680d 6fbc 681d 35bd cbe8 5abd b626 e8bc
00000270: cce5 bd3c 9ef6 b73b 664d d33c 45f5 f23c
00000280: 94cc 0dbd 6462 17bd 4eef 653d 4a55 0f3d
00000290: c840 64bd feea 273c f033 84b9 c82c 653c
000002a0: ce9c 1bbd f284 5a3d 903c 40bc 22a6 4d3d
000002b0: a41c 73bc c480 ee3c 205f 183d 849c fa3c
000002c0: 7e08 b13b 81b6 3dbc fd85 b1bc 78e9 ba3c
000002d0: add4 f73b 69a4 e0bc 10fb f93c e43c 2e3d
000002e0: 7311 06bd 7ae1 0f3d a452 303d 18fd 5a3d
000002f0: e7c8 1a3d 68f3 35bc 9b59 7fbd b6eb 04bb
00000300: 71c8 073d 26e7 3f3d c049 113b e0d9 91bb
00000310: 88aa 153c e9ba 993b e074 d63b 9c29 e4bc
00000320: 8e46 2cbd 982b 243c 65eb 82bc e903 e93c
00000330: 7628 8e3c e268 33bd b1fa 4d3d 541e 89bd
00000340: 6806 5cbc 0ae4 6a3d fe67 5f3d 0cdb 55bd
00000350: 9bad bf3c e0a5 783d de65 6a3d 4593 4fbd
00000360: afb4 2a3d cb7f b1bb f7ab ea3c dfd7 673d
00000370: ddc0 743d 4667 27bd 380c 70bc de33 96bc
00000380: 12ba 193d 8296 1cbd 53e2 31bc 310f 3ebd
00000390: eee0 33bd dedb 413d 64c6 72bd a657 9cbc
000003a0: b88e b3bc 556a f2bc baba d5bc 74ac 5f3d
000003b0: 7011 88bc 547e f93c 1904 363c 4052 dabc
000003c0: 5f2d 5bbd 9353 313b fe49 b0bc 00b0 55bb
000003d0: 023c 113d f5cb 183d 5f62 8e3c 11a8 4dbd
000003e0: 2af0 59bd 23cc e8bc 9438 4a3d 2203 38bd
000003f0: e217 91bc 11ab 19bd 96c7 e0bb 6473 d7bc
0.02807197 -0.052072924 0.0423776 0.04260281 -0.024198042 -0.044423416 -0.022524936 -0.051871408
0.028234992 0.059197035 -0.05120863 0.0057736654 0.035698198 0.021078674 0.04564156 -0.027669437
-0.024693139 -0.06454051 -0.042514473 0.028487653 0.007619427 0.049994778 -0.02427648 -0.018262044
-0.024740519 -0.02842427 0.014183181 -0.04200043 0.03167235 -0.00083456933 -0.052411616 0.053117454
0.012408122 0.042721983 -0.04003094 -0.016559772 -0.02680758 0.060861178 0.01667703 0.0010532662
-0.039537746 -0.005507415 -0.003828902 0.02195523 0.05207811 0.03296881 -0.016083442 -0.036860004
-0.027478151 -0.022680527 0.008358389 0.01849765 -0.052792992 -0.025536234 -0.010532804 0.056228563
-0.055315472 -0.015584081 -0.005889654 0.04216717 -0.03498546 0.032522257 -0.04866902 0.009060258
-0.023184754 0.003883895 0.012084699 -0.052806426 -0.053844932 -0.024330895 -0.034969896 0.048280463
-0.04034041 -0.041221265 0.014239252 0.032035265 -0.025822215 0.020205984 0.0061720847 0.013701312
-0.06288806 -0.0037442874 -0.018766195 0.0037131384 -0.017090308 -0.038693734 0.0018042261 -0.027696691
0.0545667 0.038905572 -0.049942877 -0.026748814 0.03505892 0.021576673 0.03758719 -0.015450724
0.0051351157 -0.013150022 0.036023065 0.0066144764 0.030806325 -0.034242615 0.013032146 0.04296672
-0.050081078 -0.005709432 0.02276454 -0.016712032 0.055980496 -0.027378462 -0.016570754 0.058926255
0.028053846 -0.05018692 0.026010735 -0.04436156 0.054000955 -0.06258093 0.05972191 0.028883211
0.03843672 -0.013902303 0.0437601 0.04675992 -0.04687039 0.017757257 0.019108007 -0.040206697
0.0544235 0.050649 -0.024903653 -0.031639066 -0.049011406 0.04815632 0.06707718 0.021278754
-0.01756048 -0.035535477 0.05257301 -0.012664317 0.04871235 -0.03453869 0.011979966 0.009814851
0.006621512 -0.010095336 -0.021554004 -0.023472048 0.006879695 0.027962342 0.033749525 0.0011041462
-0.014590599 -0.044217497 -0.053444665 -0.028338771 0.023180865 0.005614116 0.025793742 0.02965797
-0.03461893 -0.036959067 0.05613642 0.034993447 -0.055725843 0.010248898 -0.00025215698 0.013987727
-0.037991337 0.053349443 -0.011733189 0.050207265 -0.014838371 0.029114135 0.037200093 0.03059221
0.0054026237 -0.011579157 -0.021670336 0.022816405 0.0075631947 -0.027422147 0.030515224 0.04253854
-0.032731485 0.03512714 0.043047562 0.053464025 0.03778925 -0.011105396 -0.062341314 -0.0020282096
0.03315014 0.0468513 0.0022169203 -0.0044510216 0.009134896 0.004691471 0.0065446943 -0.027851872
-0.042059474 0.010020159 -0.015981385 0.028444247 0.017353278 -0.043801196 0.050287906 -0.06695238
-0.013429262 0.05734638 0.054542534 -0.052210853 0.023398211 0.060705066 0.057226054 -0.050677557
0.04167622 -0.0054168454 0.028646452 0.056602355 0.05975424 -0.040869974 -0.014651351 -0.01833528
0.037530966 -0.038229473 -0.010857183 -0.046401206 -0.04391568 0.047328822 -0.05927123 -0.019084763
-0.02191864 -0.029591719 -0.026090015 0.054607823 -0.016609877 0.030455746 0.011109375 -0.026650548
-0.053510066 0.002705787 -0.021519657 -0.0032606125 0.03545762 0.037303884 0.017380891 -0.05020911
-0.053207554 -0.028417652 0.049370363 -0.044924863 -0.017711584 -0.037516657 -0.00685973 -0.02630014

network.4.bias f4 [256]
00000000: e9c1 2cbb 010b 78bd 292a 133d d908 9b3d
00000010: 22e8 d03d abf7 ad3d aad4 c3bc 3889 393c
00000020: 08c8 c6bc b2ce 00bb bbea a5bc 0200 433d
00000030: a0b4 18bc 7f9f e9bc ad4b 31bd 1948 89bd
00000040: 3130 563d e956 06bd f659 43bd 091b 823b
00000050: c4e9 acbc aa5d 42bd 811c caba 30a5 8c3d
00000060: 3085 913c 0fc6 d43c facb 4b3c a205 b23d
00000070: 7e42 7ebd fe34 38bd da05 0b3d 3ee6 953d
00000080: c723 6c3d c06f 3539 1dcb 54bc 94c9 6abd
00000090: 5b51 8c3d 5dfa 043c a0d9 f7bc 1668 ffbc
000000a0: 3647 8f3d 2cc8 253d a536 813d 1216 1abd
000000b0: 36cf 1f3d e6b6 a93d 9fef edbb 84f4 8f3d
000000c0: a584 6dbc 2a9c 4a3d 85f5 253d e303 d83c
000000d0: 1641 5fbd abed 303c b5d9 bfbc 371b d43d
000000e0: ac7a 9f3d 891b cb3c 6a5e 30bd 147c 653c
000000f0: 27d8 d0bc 3e71 f6bc 8133 ebbc 93cf 043d
00000100: 8a98 4dbd 34fc 5abc 3309 4d3d 8db4 a73c
00000110: 984d 12bd 66d9 563d c573 c23c 638b 02bd
00000120: bf9e 53bd e1eb c1bb 497c 233d 862a 463d
00000130: 375e 54bc dcf1 49bd 1401 793d 534d 033d
00000140: 0ea4 31bd 5a3d 53bd dbec 0a3c 91df aa3c
00000150: 8a65 37bd 1689 81bd 0b71 313d dbd8 fabc
00000160: c8f0 a63d 9b99 893d 0c7a bb3c 2e77 aa3b
00000170: 9d58 433d 59f6 1e3c 235a 763b e51b 03bc
00000180: c62d 473d 4995 423d 0e47 c5bc b393 8f3d
00000190: 9891 23bd 793d e9bc 48a2 9e3d f81c 2fbb
000001a0: 3091 acbc 9bf6 7ebd e654 653d a6d4 ed3d
000001b0: 7b8a 8abb 120a 03bd 6ee9 8c3d 0b1a 023d
000001c0: 895a 313d 461f e939 c59b 203d 826a 60bd
000001d0: 203f a63d 144f b33d f26c 923d 7b72 483d
000001e0: 85c4 b63d 00b4 8dbd c8c2 e4bc fb9a 2b3d
000001f0: c1ff 1dbd 09f9 10bc 60e2 20bc 7d55 2d3d
00000200: 2da2 a53d c369 323c c96d 733d fac3 ac3d
00000210: da07 7f3d 0abb a2bd 7640 853d 46e6 b4bb
00000220: f558 af3c e75c 02bd 4aea 5ebd 29f6 debc
00000230: dd3f cebc 74ca 613d 162b 95bc c4dd bf3c
00000240: db26 09bd 64f4 d73c 871d 81bd 4b3d fb3c
00000250: 08c3 8f3c af9a 1d3d 733d 73bb c3b5 933d
00000260: f5ab 013c b207 76bd 52c2 7cbc a1a2 6ebc
00000270: 2ebd d3ba 1002 d4bc 5566 3e3d 0cf6 b93b
00000280: b964 91bd 372d ddbc 0387 633c 66b6 86bc
00000290: ddf7 973c c3e6 91bb 327e 893d ee2f 18bd
000002a0: ed8d a73c 45e0 77bc 6c86 783b a758 35bd
000002b0: 26cc 863d 417f 58bd a475 c63c 22bc 043c
000002c0: 9718 14bd 3ecd 173d 7348 573c fd16 053d
000002d0: a517 fe3c a172 a83d 168f a33d 52e1 d6bc
000002e0: 836c 923c d213 d03c 10e6 7cbd a695 7ebd
000002f0: f66a 873d f1af 0c3d 6e39 283d 3110 023d
00000300: 0b22 af3d 36a6 1bbd f420 1fbb aaf0 7e3c
00000310: 9bc8 70bc 9022 1cbd 7dca 5f3d 48fc c9bb
00000320: 06bd 463d 1446 a9bb c8c3 dc3c ef94 233d
00000330: 548f 39bd dba3 8bbc 39c7 c63d 69cb 71bd
00000340: 716e 2c3c f05f 3cbd 93ee 7abb 621a 3fbb
00000350: 814f 3b3d 9e00 20bd 8c42 a03c 2b47 72bd
00000360: fc65 063d c50b c8bb 558b 1ebc 6ba6 403d
00000370: 890c 1abd 21bd 703b 0755 463d 958d b53b
00000380: 2ac9 69bb 0524 16bb ac37 993d 4d08 39bd
00000390: 0839 82bd dd25 d5bc 4ef0 9d3c 9d04 6fbc
000003a0: 7b0d a63d fa5a 273d 3262 963c 8d6b 06bd
000003b0: 945e 3dbb eb51 573d 4d8d 27bc 00e0 103b
000003c0: c094 82bb 718e 033d f79a debb 8159 e43c
000003d0: 2b22 c1bc 7dd6 3c3c bb91 04bd f8b5 0abb
000003e0: a26d bc3c a75e b93d b0e0 ac3d e298 5fbd
000003f0: 31dd 973d f38f c23c 1e7d 13bd e26e 693b
-0.0026360697 -0.06055737 0.03592888 0.07570047 0.10200526 0.084945045 -0.023905117 0.011324219
-0.024265304 -0.001965445 -0.02025353 0.04760743 -0.009320408 -0.028518436 -0.04328506 -0.06703205
0.052292053 -0.032797728 -0.047693215 0.003970508 -0.021107562 -0.047452606 -0.0015419872 0.068674445
0.017763704 0.025973348 0.0124387685 0.086924806 -0.06207513 -0.044972412 0.033941127 0.07319306
0.057651307 0.00017303135 -0.012987879 -0.057321146 0.06851455 0.008116332 -0.030255139 -0.031177562
0.06996004 0.040474102 0.06309251 -0.037618704 0.03901597 0.08286838 -0.007261231 0.070290595
-0.014496957 0.049465336 0.04051735 0.02636904 -0.05450543 0.010798852 -0.02341924 0.10356753
0.0778707 0.024793403 -0.04305879 0.014006633 -0.025493694 -0.030083295 -0.028711082 0.03242452
-0.0501943 -0.013365794 0.0500576 0.020471836 -0.03571853 0.05245342 0.023736844 -0.03187121
-0.051665064 -0.0059180115 0.03991345 0.048380397 -0.012961916 -0.04930292 0.060792044 0.032056164
-0.043369345 -0.05157218 0.008479322 0.020858558 -0.04477457 -0.06324975 0.043320697 -0.030620983
0.08151394 0.06718751 0.022885345 0.0052021956 0.04769193 0.009702289 0.0037590347 -0.008002256
0.048627637 0.04750565 -0.024081733 0.07010593 -0.03993377 -0.028471695 0.077457964 -0.0026720148
-0.021065325 -0.0622469 0.05598917 0.11612825 -0.004227934 -0.031992026 0.06880461 0.031763118
0.04329923 0.00044464524 0.039211053 -0.054789074 0.08117509 0.08755317 0.07149686 0.048937302
0.08924202 -0.06919098 -0.02792491 0.041895848 -0.038573984 -0.008848437 -0.009819597 0.042317856
0.08087573 0.010889473 0.05943087 0.08435817 0.062263347 -0.07945831 0.065064356 -0.005520615
0.021404723 -0.03182688 -0.054422654 -0.027216988 -0.025176937 0.055124715 -0.018209022 0.023421176
-0.03348432 0.026361652 -0.0630446 0.030668875 0.017549053 0.038477596 -0.0037115484 0.07212403
0.007914533 -0.060065933 -0.015427189 -0.014565141 -0.0016154402 -0.02587989 0.04648431 0.005675083
-0.070992894 -0.0269991 0.01388717 -0.016444396 0.018550808 -0.004452558 0.06713523 -0.037155084
0.020453418 -0.015129154 0.0037921919 -0.044274 0.06581907 -0.052855734 0.024226017 0.008101495
-0.036156263 0.03706097 0.013139832 0.032492626 0.031017134 0.08224989 0.07986276 -0.026230488
0.017874008 0.025400076 -0.061742842 -0.062154435 0.06612198 0.03434748 0.041070394 0.031753723
0.08551415 -0.038000308 -0.0024281116 0.0155603085 -0.014696266 -0.0381189 0.054636467 -0.0061641075
0.04852011 -0.0051658247 0.026948825 0.039936956 -0.045302704 -0.017045906 0.097059675 -0.059031878
0.010524378 -0.04598993 -0.0038289174 -0.0029160012 0.045730118 -0.03906309 0.019562982 -0.059149902
0.032812104 -0.0061049187 -0.009676774 0.04703371 -0.03760961 0.0036733823 0.048420932 0.0055405595
-0.0035672882 -0.0022909653 0.07481322 -0.045173932 -0.06358534 -0.026019031 0.019279625 -0.014588502
0.0810804 0.040858246 0.01835737 -0.032817412 -0.0028895484 0.052568357 -0.01022656 0.002210617
-0.0039850175 0.032118265 -0.0067933756 0.02787471 -0.023575863 0.011525747 -0.032365542 -0.002116559
0.023001496 0.090512566 0.08441293 -0.05458916 0.07415236 0.023750281 -0.036007993 0.003561907

network.6.weight f4 [3, 256]
00000000: 7cc9 e4bc 3344 54bc a85b 8fbd 0bea 6d3d
00000010: 5a88 b9bc 2007 803d 13d2 ecbd 3d72 17bd
00000020: 0033 4f3a 2b54 c8bd 373a 4bba 32f6 f7bd
00000030: 9f49 9c3c b73a 9c3c 145d 1b3d 9ef3 583d
00000040: 5ac9 d23c 6985 2bbd ace4 693d aaff 30bd
00000050: 83b5 3bbd b57c fe3c 34c6 2ebd e26f a23d
00000060: 834d 7ebd 58e7 ab3c 7dc4 3d3d e785 f6bc
00000070: 8c77 153d 467c 45bd cae6 ab3d f335 acbc
00000080: c4b5 c9bd 331a 8c3c 4524 503c 9be3 e83c
00000090: 21d6 81bd 7e02 04be 1947 083d b0b5 7aba
000000a0: 5367 1ebc 48c5 983b 8905 e4bd 0c17 723c
000000b0: 62f7 4dbd b1b6 373d 3f0f 543d 39f5 dfbd
000000c0: 0b91 c3bc 3971 e5bc 6d03 37bd 4ff4 9f3c
000000d0: 7024 02bc 71fe 91bc 2565 5ebc d4f0 1dbd
000000e0: ccd8 ba3d b0e2 03be d6ea 49bd f35e 5fbd
000000f0: 52d2 0c3d d50e 5c3b 5c7b 063d 7846 96bc
00000100: 548c a4bc 8078 263c e943 613d 03a7 d83a
00000110: e046 9cbc e54b 863c 8928 58bd 6f22 e7bc
00000120: 7780 593c 6971 0ebd cbdc 8f3c eb3a 863c
00000130: 8211 253d 2ea9 e7ba 76dc 333d 058e b1b9
00000140: 1e0f 2f3c 7fe4 e4bc 8ad3 6f3c b151 34bb
00000150: d3d5 813d 0cd1 0cbd 2aa3 1f3d f383 0f3d
00000160: 6a91 b93d 530c e63d 18db 0ebd cbe6 9c3d
00000170: 3d30 1bba 353c 113d 42a8 d2bd 74aa c83c
00000180: 5c3f ebbc 7239 843d bd9f 823d 9db8 b63c
00000190: 40ae 86ba e898 9f3d 1545 0d3d 56f5 6e3d
000001a0: 72a8 743d b21f 53bd e2d3 763d 08d3 02bd
000001b0: 94ed 13bd 24a0 433c a234 d33d 82aa b33d
000001c0: 7a48 593d 4c22 2c3d d89c 11bd 66a1 6b3d
000001d0: 46b1 b63d 55c9 573d 9789 8f3d 96da eebd
000001e0: 3bb5 38bd b056 8c3b b7ed 05bd 9b69 fa3c
000001f0: 90cb e7bc 357e 053d 45b0 c53c 20d2 51bd
00000200: f359 d1bd ee86 cdbb 7f04 b43d 7ef0 e5bd
00000210: 101e 683d d8c6 0ebd fc81 e6bd 7f50 593c
00000220: ec7f 4c3d 2909 f8bc d8c7 483d 159a dbbc
00000230: 310f 7c3b 2e07 e8bd 7601 ec3b 4460 5cbd
00000240: 0ab7 e23c 3c64 773c 3ebe 45bb 250f adbc
00000250: b0c6 563d 912e 1c3c 92a4 aabd f877 303d
00000260: f8fb dabb 87d3 08bd bcf2 213d 7ba6 b7bd
00000270: 2ec1 943c 5632 babb f54b abbd ec95 91bc
00000280: 357f 50bd bc89 b53b 2132 883b 5d35 343d
00000290: ac66 873d d311 723d 1c0e 2ebd 56d8 4abb
000002a0: c85e 833c 204d 11bd f824 5a3b 239a 4dbd
000002b0: ec57 77bd 231d d2bc 8b73 393d 408d 363d
000002c0: 3486 5c3d 7d4e f2bd 6324 34bd 6077 2cbd
000002d0: 296d 7a3d b715 3d3d 307d b0bc c150 643d
000002e0: da74 403c 8771 7c3c 8cf6 4d3d b7ac 2cbd
000002f0: 6e9c e0bc 6f34 1f3d 55f1 c03d b05c c9bc
00000300: 8204 7ebd acb9 7f3d 9c7a 013d d8d6 053b
00000310: 7e2a 3a3d e7ef 0c3d 1b75 7f3b b1dd 42bd
00000320: f57c 213b 768f b5bc 713b e03c 12ed 573d
00000330: 1c0e d8bb d2a6 43bc f083 d8bc 9ab8 bf3b
00000340: 30ca 133c 4781 2e3d f8ab 92bb 109b 8b39
00000350: da54 1a3d 3220 9bbd 0525 f8bd f00b 61bc
00000360: 1986 843d 28da ecba c1aa 063d 0b11 f9bd
00000370: abb7 9fbb 00d9 1ebc 9b3d 40bd 9cc2 5f3c
00000380: 845e 373d 41dc 38bd 983c fbbd 3345 9cbb
00000390: a233 a6bd 68a9 9a3d 0188 0cbd 041b 82bc
000003a0: 84e0 a13d b104 9fbc 3381 47ba bd8f 98bc
000003b0: 00de 923d 939f df3c 3469 33bd 56da 643d
000003c0: 8ff8 053d 1b0c efbc 4f7a 0cbd 6959 823d
000003d0: 47b6 1fbd c353 753d 1507 1bbd 898b 31bd
000003e0: aba2 22bb 3e38 9dbc 0215 f5bd 4383 eb3c
000003f0: 0dc9 833d 1809 6a3d d333 c8bb 59b3 94bc
-0.027928106 -0.012955713 -0.06999904 0.05808453 -0.022648025 0.06251359 -0.11563506 -0.03697418
0.0007904023 -0.09781679 -0.000775251 -0.12107505 0.019078074 0.019070966 0.037930563 0.052966706
0.025730778 -0.041875277 0.057102844 -0.04321257 -0.0458274 0.031065324 -0.04266949 0.07931496
-0.06208564 0.020984337 0.046329964 -0.030093146 0.036490962 -0.04821422 0.08393629 -0.021021819
-0.09849122 0.017102337 0.01270396 0.028428843 -0.0633967 -0.12891576 0.03327093 -0.0009563817
-0.009668189 0.0046621896 -0.11133868 0.014776003 -0.05028475 0.044851962 0.051772352 -0.109354444
-0.023872873 -0.02800809 -0.044681 0.019525675 -0.007943258 -0.017821522 -0.013573919 -0.03855975
0.09123382 -0.12879443 -0.049296223 -0.05453391 0.034380265 0.0033578177 0.03283249 -0.018344149
-0.020086445 0.010160565 0.054996405 0.0016529266 -0.019076765 0.016393611 -0.052773032 -0.028214661
0.013275257 -0.034776125 0.017561337 0.016385516 0.0402999 -0.0017674321 0.04391142 -0.00033865884
0.010684757 -0.027940987 0.014637837 -0.0027514512 0.06339612 -0.03437905 0.038973965 0.035037946
0.09060939 0.112328194 -0.034876913 0.07661208 -0.0005919969 0.03545781 -0.10285999 0.02449534
-0.028716736 0.06456269 0.06378124 0.022304827 -0.0010275319 0.077928364 0.03448971 0.05833944
0.059730954 -0.0515439 0.06026066 -0.031939536 -0.036115244 0.011940036 0.10312773 0.08772756
0.053047635 0.042024896 -0.03554997 0.05752697 0.08920531 0.05268224 0.07008665 -0.11662786
-0.04509471 0.004282795 -0.032697406 0.030567935 -0.028295308 0.032591064 0.024131903 -0.05122578
-0.102222346 -0.0062721884 0.0878992 -0.11227511 0.056669295 -0.0348576 -0.11255261 0.013263821
0.049926683 -0.030277805 0.04901871 -0.02680687 0.0038461203 -0.113294944 0.0072023226 -0.053802744
0.02767517 0.015099581 -0.0030173208 -0.021125386 0.052435577 0.009532587 -0.083321705 0.04308316
-0.006682869 -0.033404853 0.03953813 -0.089673005 0.018158522 -0.00568227 -0.08364097 -0.017771684
-0.050902564 0.005540101 0.0041563665 0.043996204 0.0661138 0.05909903 -0.042493924 -0.00309517
0.016036406 -0.035473943 0.0033286195 -0.050195824 -0.060386583 -0.02564866 0.045276206 0.0445683
0.053838924 -0.11831377 -0.043980014 -0.042106032 0.06113926 0.046163287 -0.021544069 0.055741075
0.01174661 0.015407926 0.050283954 -0.0421569 -0.027418341 0.038868364 0.094210304 -0.02458033
-0.062016018 0.06243293 0.03161107 0.0020422246 0.04545068 0.034408476 0.0038979712 -0.047574703
0.002464113 -0.022163134 0.027372094 0.052716322 -0.006593479 -0.0119416285 -0.0264301 0.0058508636
0.009020373 0.042603757 -0.0044760667 0.00026627677 0.037678577 -0.075745 -0.12116436 -0.013735756
0.064708896 -0.0018070387 0.032877687 -0.12161454 -0.00487419 -0.0096952915 -0.04693375 0.013657238
0.04476787 -0.045131925 -0.12267417 -0.0047689914 -0.08115317 0.07551843 -0.03430939 -0.015882023
0.07904151 -0.019411417 -0.00076105 -0.018623227 0.071712494 0.02729777 -0.0438015 0.055872284
0.032707747 -0.029180577 -0.03429633 0.0636471 -0.038992193 0.059894335 -0.03784855 -0.04334596
-0.0024816196 -0.019191857 -0.119668975 0.028749114 0.06434832 0.05713758 -0.0061096936 -0.018151926

network.6.bias f4 [3]
00000000: 5244 05bd f2ee 8d3d 22a2 673b
-0.03253586 0.06930341 0.0035344441
