final_model.pth (torch, 23216 bytes, 6 tensors)

network.0.weight f4 [64, 11]
000000 20 b3 ad be 35 7b 2e bf ec b4 af 3c 77 d4 9d be
       -0.33925724 -0.6815675 0.021448575 -0.3082616
000010 fa e1 cc 3e b3 84 6d 3f 91 d0 72 3e a8 3a 90 be
       0.40016156 0.9278061 0.23712374 -0.2816975
000020 c9 78 c5 bd 51 94 11 be a7 f1 c4 3e 8f bb 07 bf
       -0.096421786 -0.14216734 0.38465616 -0.53020567
000030 ab f4 db 3e 3f 89 bc 3e 67 44 92 bd 23 64 89 be
       0.42960104 0.3682346 -0.07141953 -0.2683421
000040 8f 1a cb be 17 5a 14 3e ba 22 da bc 8f f8 08 3f
       -0.396687 0.14487492 -0.026627887 0.5350427
000050 53 0a dc 3d 38 ba b0 3e a4 83 80 bf 14 88 49 be
       0.10744157 0.34517074 -1.0040174 -0.19680816
000060 31 0a 1b 3f 26 d3 04 bf 3e 74 9e 3d e6 f4 71 3d
       0.60562426 -0.51884687 0.07737015 0.059071444
000070 be e5 53 3e ff ba 87 be bb e0 2b 3d 95 9c 27 bd
       0.20693108 -0.26509854 0.041962367 -0.040920813
000080 01 5e 11 3e bf 86 fc 3e bf 77 bf bf 77 39 0f 3e
       0.14196016 0.49321553 -1.4958419 0.13986765
000090 ed dd b3 3e fc 70 9e bf b0 99 4d 3e a3 9d b6 bc
       0.35130253 -1.237823 0.20078158 -0.022291964
0000a0 ba 08 38 be b3 fc ba be 79 fd ed 3e 70 9c df be
       -0.17972079 -0.3652092 0.46482447 -0.4367404
0000b0 6e 97 a7 be 39 bb 28 bf 1c 93 39 3f fd 9f 25 3f
       -0.3273272 -0.6591068 0.72490096 0.6469725
0000c0 76 3b d2 be 29 1f 0f 3f 6b 9e ed be 6c b6 64 bf
       -0.4106099 0.5590692 -0.46409926 -0.89340854
0000d0 3c f1 5a 3d 6d dc 74 3e c6 4e 53 bf 62 04 a7 be
       0.053452715 0.23912211 -0.82542074 -0.3262053
0000e0 86 1c 5d 3e 60 70 79 bf 30 b0 e8 3e b9 b1 83 bf
       0.21592912 -0.97437096 0.4544692 -1.0288612
0000f0 de c1 98 3d df b2 ce 3d 26 64 3e 3e 55 cf 5f be
       0.07458852 0.10092711 0.18592891 -0.21856435
000100 fe f4 2b bf 72 20 3c 3f e7 5d 07 bf 3e 02 fe 3e
       -0.67170703 0.7348701 -0.5287766 0.49611086
000110 d8 3b 0a 3d 76 12 32 3f d4 03 83 bf 0b 99 2b bf
       0.033748478 0.6955942 -1.0235543 -0.670304
000120 34 f3 f8 bd 00 57 c8 3e 7f e6 93 bc 12 c6 1d bf
       -0.12155762 0.39128876 -0.018054245 -0.61630356
000130 93 22 c8 3e 14 a6 0d 3f c7 4c 83 be 5d b5 9b be
       0.39088878 0.5533154 -0.25644514 -0.30411807
000140 6a 56 bd be a7 11 9a 3e b8 16 16 3d fc a7 3c be
       -0.3697999 0.30091593 0.03664276 -0.18423456
000150 93 0f 55 be e5 75 b3 be f7 61 2e 3b f0 ec a0 be
       -0.20806722 -0.35050884 0.0026608685 -0.3143077
000160 e7 6d 02 bf 84 58 b0 bd d8 27 30 bf a7 b2 f1 3e
       -0.5094895 -0.08610633 -0.68810797 0.47206613
000170 37 71 5b bd ca 45 1e be 6b 1d 89 3e 00 8a 07 be
       -0.053574767 -0.1545631 0.26780257 -0.13236237
000180 13 6e a8 3e d0 6d 2a bf 78 22 cb bd ec a5 66 bc
       0.3289648 -0.6657381 -0.09918684 -0.014077645
000190 e7 11 03 3f 4b 71 16 be 12 68 09 3f 20 6a bb be
       0.5119919 -0.14691655 0.53674424 -0.36604404
0001a0 88 f5 19 bf c0 fc 16 bf 6c 58 93 bf 84 4c 8e be
       -0.60140276 -0.58979416 -1.1511359 -0.27792752
0001b0 23 53 d2 bc 25 72 96 bd 58 9f 13 bf d4 19 d1 3e
       -0.025674408 -0.0734599 -0.57665014 0.40840018
0001c0 97 47 a6 3e dd d5 05 bf 70 26 8e 3f ff f2 f4 bb
       0.32476494 -0.52279454 1.110548 -0.0074752565
0001d0 d9 1c 0d 3f e3 b5 40 bf ab a6 15 3e c3 1f d7 be
       0.55122143 -0.7527754 0.1461436 -0.4201642
0001e0 d2 15 4b bf 4f c5 32 bf ae bf d0 bd 1d 97 98 be
       -0.7933017 -0.6983232 -0.1019281 -0.2980279
0001f0 96 14 20 be a1 7b d8 3e 57 a6 ff 3e 82 03 33 3e
       -0.15632853 0.4228182 0.49931595 0.17481807
000200 e8 54 9b 3e 76 83 b7 3e c8 24 a1 3e 63 e6 e7 be
       0.30338216 0.35842484 0.31473374 -0.4529296
000210 b9 c4 af be 4a 12 1e bf 15 4e 23 3f 11 39 83 3d
       -0.34329775 -0.61746657 0.6379102 0.06407369
000220 2f a1 d1 bc 94 23 62 be 74 92 cc 3e d9 87 bc 3e
       -0.025589554 -0.22083884 0.39955485 0.36822394
000230 46 f7 c6 be 0a 69 d8 be 65 2c 6e 3e 1b 7f a7 3e
       -0.3886053 -0.42267638 0.23259123 0.3271416
000240 0e 19 fe 3e 98 b9 a4 be 69 38 0b bd 61 4f 5f be
       0.4962849 -0.32172847 -0.033989344 -0.21807624
000250 cf f8 17 bf 76 20 53 3d 9f e2 42 be c1 ed c4 bd
       -0.59364027 0.05154463 -0.19031762 -0.096156605
000260 a1 7f 80 3e 91 29 00 3e f7 af 2c bf a0 b3 83 bf
       0.25097373 0.12515856 -0.67456 -1.0289192
000270 26 0c 15 3f fe 4a 0c 3f 25 f1 fe bd 66 05 be bd
       0.5822166 0.5480193 -0.124483384 -0.092783734
000280 6f fc 9a 3c 12 0b d2 3e 40 44 92 3e 05 ed e0 3e
       0.018919198 0.4102407 0.28567696 0.43930832
000290 45 0d 19 3e ff 5e 4d 3f 47 1b b6 be fd 90 39 3f
       0.14946468 0.8022308 -0.35567686 0.7248686
0002a0 7d e8 e5 bd d3 a9 7d be 75 a1 1f be 4f 50 f9 bc
       -0.11225984 -0.24771814 -0.15588935 -0.030433802
0002b0 32 2a 23 3d bd 70 a1 3e b7 8b 8a 3e 83 1d 0a 3e
       0.039835162 0.31531325 0.2705972 0.1348782
0002c0 c9 08 81 bf ec 00 d4 3d f1 66 aa bd 77 39 0b be
       -1.0080806 0.10351738 -0.08320416 -0.1359614
0002d0 04 b7 5a 3e 8b 27 f7 3d c2 c6 3d 3f 53 ea ef be
       0.21358877 0.12068089 0.74131405 -0.46858463
0002e0 35 4c c9 3e 8c 14 1e bf 6d c1 93 bc db 3b 8a bf
       0.39315954 -0.617501 -0.018036569 -1.0799516
0002f0 30 73 75 be b0 7d 9f 3e 8f ab 2c 3e 89 59 1a 3f
       -0.23969722 0.3115058 0.1686232 0.6029287
000300 f5 b3 17 3f 88 32 60 3e 85 1f 1d 3e d9 de 2b bf
       0.5925897 0.21894276 0.15344055 -0.67136914
000310 d9 45 1e bf ab 32 02 bf 49 1c 97 be ec dc 3d bf
       -0.6182533 -0.50858563 -0.29513767 -0.74165225
000320 86 4d 34 bd 1b 84 b7 3e fe 4d 03 bf b2 68 92 3e
       -0.044019245 0.35842976 -0.5129088 0.285955
000330 7b 08 1e bf d6 d0 52 bf d5 65 03 be ac 96 8f 3e
       -0.6173169 -0.8234991 -0.12831815 0.2804464
000340 0f be bc be 58 da 23 3d fb 45 c4 be b6 33 df 3d
       -0.36863753 0.04000315 -0.3833464 0.10898535
000350 c3 0b 3d 3e f3 c6 5c bf 6b 12 87 bf 41 08 7f 3f
       0.18461518 -0.8624107 -1.0552496 0.9962197
000360 03 d0 88 bf 6b 21 2d 3f 80 90 64 bf 35 41 84 3e
       -1.068848 0.67629117 -0.8928299 0.25831
000370 45 b6 b1 be e0 b6 14 bf 46 99 74 be 83 96 f7 3e
       -0.34709373 -0.58091545 -0.23886594 0.4835702
000380 89 a5 ef be 26 5e 9e 3e 11 1c b9 be df 26 a7 be
       -0.4680598 0.30931205 -0.36154225 -0.32646844
000390 ed cd ef 3e 38 dd 4f bf 54 64 25 3e 21 5b 89 bf
       0.46836796 -0.8119693 0.16151553 -1.0730935
0003a0 2c ae ce 3e d6 0c 2a 3f 87 e4 04 3e 36 59 a4 3e
       0.40367258 0.66425836 0.12977801 0.32099313
0003b0 af 87 4d bc e0 e3 b5 3e d0 49 a9 be 7d b5 33 bd
       -0.0125445565 0.35525417 -0.33064127 -0.043874253
0003c0 e5 0b 30 bb de 71 ad 3e 98 0f 98 be 6a 0a 3a bf
       -0.0026862558 0.33875936 -0.29699397 -0.7267214
0003d0 1e 99 95 3f 98 c6 3e 3e 64 cd 73 bf 25 f5 a8 3e
       1.1687353 0.18630445 -0.95235276 0.3299953
0003e0 41 6d 9c be 36 5c f2 be 62 2c eb 3e ce 88 81 be
       -0.30552104 -0.47335976 0.459323 -0.25299686
0003f0 13 90 c3 bc 76 6a c1 bd fb 29 a5 3e 90 e7 a2 be
       -0.02387241 -0.09444134 0.3225859 -0.31817293

network.0.bias f4 [64]
000000 f7 a5 f7 3c 99 1e 03 bf 7a 74 1a ba a5 be bc 3d
       0.030230505 -0.51218563 -0.000589199 0.0921605
000010 82 61 95 bd 74 b7 c1 be 77 7d 2f bf 6a ca 8b be
       -0.07293989 -0.37835276 -0.6855082 -0.27302867
000020 c2 b5 94 3e 1e 2d 28 be 8c cc e8 be 0c f4 54 3e
       0.2904492 -0.16423461 -0.45468557 0.20796221
000030 3c d4 ea bd b7 91 7c be 11 c6 ef 3d e0 b8 b9 be
       -0.11466262 -0.24664961 0.117077 -0.3627386
000040 83 41 85 3e 18 38 e7 3e 72 7e 2d be 6c c3 1b be
       0.26026544 0.45159984 -0.16942766 -0.15211266
000050 02 bd 84 3d 13 64 e6 be 31 6b 2c 3d 2d 76 a4 3e
       0.06481363 -0.44998226 0.042094413 0.3212141
000060 57 81 63 be de 95 a2 be 7e e0 93 bd 32 6a 42 3e
       -0.22217308 -0.31754965 -0.07220553 0.18985823
000070 90 36 c8 be 07 95 97 be 41 74 b1 be f4 31 fd be
       -0.39104128 -0.29605886 -0.34659007 -0.49452174
000080 67 0e 3e be d5 f3 0a bf e2 3c 86 be 63 b5 14 be
       -0.18560182 -0.5427831 -0.26218325 -0.14522319
000090 48 39 c7 3e 91 b7 f6 3d ff 45 34 bd c5 d1 9f bd
       0.3891089 0.12046731 -0.044012066 -0.07803682
0000a0 c8 a3 31 be 8c f6 35 be a3 9a 44 be 68 45 04 3e
       -0.17347634 -0.17769831 -0.19199614 0.12917101
0000b0 23 07 1a 3e 5d 2e 21 bd f8 8e 96 bd 9d 03 6c be
       0.15041785 -0.039350856 -0.07351488 -0.23048253
0000c0 d5 44 90 be e4 67 57 be 35 ee 17 be 6e 00 72 3e
       -0.28177515 -0.21035725 -0.14836963 0.23632976
0000d0 85 f8 9f bd 8d 30 4a be 9a 13 7f 3e 61 3b 22 be
       -0.07811073 -0.19745083 0.24909821 -0.15842964
0000e0 7b 06 5b 3e 9b cc aa be 12 82 25 be 75 9d 6a 3e
       0.21389191 -0.33359227 -0.16162899 0.22911628
0000f0 22 45 b2 be e5 03 cf 3d 84 d1 ac 3e 17 af f4 be
       -0.3481837 0.10108165 0.33753598 -0.47789833

network.2.weight f4 [64, 64]
000000 37 22 ce 3c a7 8d 06 bd fb 69 69 3d 4d ab 51 be
       0.0251628 -0.032849934 0.056985836 -0.20475502
000010 f0 2f e7 bc 69 3c 19 bd 24 60 37 3e 6c d0 b9 3d
       -0.0282211 -0.037411127 0.17907768 0.090729564
000020 a3 a3 2c be 6c d1 7a be 9a 6e f0 bd e7 af b2 bd
       -0.16859297 -0.2449395 -0.117398456 -0.08724957
000030 17 16 63 be c2 2c 46 bd 17 50 4c bc ea f2 10 3c
       -0.22176395 -0.048382528 -0.012470267 0.008846978
000040 46 ea a8 3c b7 df 14 be 7e a6 68 be 28 2f d6 bd
       0.020619523 -0.14538465 -0.22719762 -0.10458213
000050 6a 73 90 bd 00 72 2c be c2 02 c6 bd fa 49 1f 3c
       -0.070532635 -0.16840363 -0.09668495 0.009722227
000060 fc 0b 20 be 16 6d 4a bd 8f 89 0d be 4b 9a 4a be
       -0.15629572 -0.04942044 -0.13822006 -0.1978542
000070 d1 31 87 bc 34 72 3c 3d a0 dc 23 be 52 80 1d be
       -0.016503247 0.04600735 -0.1600213 -0.15380982
000080 8d 9b 5f bd 87 d6 24 be d6 8e 30 bd 55 d3 bb bd
       -0.054591704 -0.1609746 -0.04310497 -0.09171168
000090 4f 7b a5 bd d1 0b 38 be 58 72 35 be 42 aa e3 bc
       -0.0808016 -0.17973258 -0.177194 -0.027791146
0000a0 cc 56 67 bd f4 92 58 be 28 76 2f be 0e 43 e2 bd
       -0.05647926 -0.21149808 -0.17134917 -0.11047946
0000b0 7d f6 68 bd 8f 11 07 be 46 87 44 be 19 85 01 bd
       -0.056875695 -0.13190292 -0.19192228 -0.031621072
0000c0 09 e8 79 be ba af 14 be 01 8d 13 3c 12 36 20 be
       -0.2440492 -0.1452016 0.009005786 -0.15645626
0000d0 3c 9d a4 bd 62 7f 4e be e3 83 23 be f2 60 39 be
       -0.080378026 -0.2016578 -0.1596828 -0.18103388
0000e0 da 48 3c bd 01 05 19 be da 60 b1 bd ae 5d 4d bd
       -0.045967914 -0.14943315 -0.08661051 -0.050138168
0000f0 14 a8 e8 bd ff e2 bf bd e9 ce de bd 16 0c 53 3d
       -0.11360183 -0.09369468 -0.10879309 0.051525198
000100 f2 c6 bc 3d 07 70 f5 3e 48 34 78 be 1a a7 ec 3e
       0.09217633 0.47937033 -0.24238694 0.46221238
000110 bb 57 31 3e ca 7a 5a bd 68 c5 46 bf da 51 26 3f
       0.17318623 -0.053339757 -0.7764497 0.64968646
000120 2d b4 d7 be cb 7c 61 3e 6e 1c 51 bf 28 db 50 bf
       -0.4212965 0.22020261 -0.81684005 -0.81584406
000130 46 34 39 bd bf 2f ff 3e 62 02 dd be db 29 91 be
       -0.045215867 0.49841115 -0.4316588 -0.28352246
000140 58 8b 7a bf 9f 21 a6 bf 11 9b b8 3c 11 37 b2 3e
       -0.9786887 -1.297901 0.022534879 0.34807637
000150 94 66 ae bd 2d 93 74 be 18 76 02 bf e8 8d f6 3e
       -0.08515659 -0.23884268 -0.50961447 0.4815514
000160 48 f1 40 bf a0 90 2f 3f 1d 08 78 3f ad 28 d5 be
       -0.75368166 0.68580055 0.9688738 -0.41632596
000170 c7 c7 28 3e fc d0 a3 bd e0 d7 a8 3e 2b 1f cb bc
       0.16482459 -0.07998845 0.329772 -0.024795135
000180 09 75 85 3d e2 d0 de 3e 4b de a1 3e b2 24 05 bf
       0.06516463 0.4351874 0.3161491 -0.5200912
000190 a0 60 2a bf 8b 84 7b be f3 77 1f bd 40 a9 52 bf
       -0.6655369 -0.2456228 -0.038932752 -0.82289505
0001a0 d6 77 d0 3d 8d 03 e1 3e 8e ce 6c 3c 52 32 79 3e
       0.10179107 0.43948022 0.014453543 0.24335602
0001b0 9b ff 05 3d 3f 6d 40 3f bd d1 69 3f 93 c5 c0 3d
       0.032714467 0.75166696 0.9133566 0.09412684
0001c0 6f a5 fd 3c ee 14 3d bf 98 d0 d9 3e 44 f4 b5 be
       0.030962674 -0.7386006 0.42541957 -0.35537922
0001d0 33 5b cf 3e b2 d8 35 be ad 7a 16 3e 26 82 15 3e
       0.40499267 -0.17758444 0.14695235 0.14600429
0001e0 a9 5d 71 3f bd a5 0b bf 38 cc df bd d0 14 c4 3a
       0.9428354 -0.5454977 -0.109276235 0.0014959816
0001f0 c1 da bb 3e b7 53 d8 3e ed f8 36 3d be b5 1b 3e
       0.36690333 0.4225137 0.044670988 0.15206048
000200 cd 1a e4 bd 19 8e 4b be a7 dd 0b be be fb 81 3e
       -0.11137924 -0.19878425 -0.13658772 0.25387377
000210 89 88 31 3d e2 33 c2 be 74 3d bf bd 68 2f 32 bf
       0.0433431 -0.37930208 -0.09337893 -0.69603586
000220 3a 9d 2a be 00 32 44 be ef 9c f7 bd c2 99 39 be
       -0.1666154 -0.19159698 -0.120904796 -0.1812506
000230 4d 82 47 bd f6 43 02 be ae 20 17 be 90 af 7b be
       -0.04870825 -0.12721238 -0.1475856 -0.2457869
000240 7f 62 8e be 9d 6d d7 bd c2 23 07 3e 55 28 8a be
       -0.27809522 -0.10518954 0.13197234 -0.26983896
000250 5c 74 2f 3c b2 1c 9b bd 91 d5 05 bd 52 67 f8 bd
       0.010708895 -0.075738326 -0.032674376 -0.12129082
000260 6f 02 8c be ab 59 23 be 48 e2 34 3e eb 17 ba bd
       -0.27345607 -0.15952174 0.17664444 -0.09086593
000270 44 73 df be c4 c5 35 bd e4 8a bf be 3f f3 a0 be
       -0.43642628 -0.044378057 -0.37410653 -0.31435582
000280 74 27 c4 bb 35 29 e9 bc 5c 46 3b be b5 5e 49 be
       -0.0059861485 -0.028462032 -0.18288559 -0.19665034
000290 36 9b 09 be bb 22 33 be 57 3e bc be de 6c 13 be
       -0.13438115 -0.17493717 -0.36766312 -0.14396998
0002a0 da e0 c1 3d 5e 5a 8a bd 1c 31 4b 3d f5 da 06 bf
       0.09466715 -0.067555174 0.04960738 -0.5267785
0002b0 4e 6e 15 be 62 5e ea be f2 8f d0 be cf 4d 47 be
       -0.14592859 -0.45775133 -0.40734822 -0.19463275
0002c0 83 be 27 3d 8a af 86 be 96 60 00 be dd b3 06 be
       0.04095317 -0.263058 -0.12536845 -0.1315455
0002d0 d3 4c 86 3d ce af 0e be 77 a8 8e 3b 2a ad b8 bb
       0.06557622 -0.13934252 0.0043535787 -0.005635877
0002e0 19 3b da 3d bc c1 11 3e 4f ba 4b be f3 d9 94 be
       0.10655803 0.1423406 -0.1989529 -0.29072532
0002f0 70 e0 98 be 4a 93 9d bd 33 dd 93 be 14 d1 17 bd
       -0.29858732 -0.07694109 -0.288797 -0.037064627
000300 a5 87 8c be 2a 0f 85 be 64 45 fe bd f1 8e 23 be
       -0.2744724 -0.25988132 -0.12415579 -0.15972497
000310 2b 31 97 bd cf c8 12 be aa 96 a7 bc 95 08 c3 bd
       -0.07382425 -0.14334415 -0.020457584 -0.09523121
000320 09 e5 16 bd 00 60 39 be 95 9c ee bb ce a8 6a bd
       -0.03683952 -0.18103027 -0.0072818496 -0.05728989
000330 0b b8 90 be b7 7f 59 bd 23 67 94 bd 5c 76 ca bd
       -0.28265414 -0.053100314 -0.07246234 -0.098858565
000340 7e b4 25 be 94 28 ab bd bd 83 56 bd fc 07 ab 3d
       -0.16182134 -0.08357349 -0.05237173 0.08351132
000350 3a 82 2e bd f9 61 26 be 97 ca 37 be 96 7c 57 be
       -0.042604662 -0.16248311 -0.17948376 -0.2104362
000360 9d 56 7c bd de 19 18 3b f7 e8 52 be 1f 83 62 be
       -0.06160604 0.0023208777 -0.20596682 -0.22120331
000370 e5 46 eb bd e0 82 a6 3b 93 91 1a 3b 24 e9 3b 3d
       -0.114881314 0.0050815195 0.0023585304 0.045876637
000380 7a d1 42 be d7 78 03 be 75 97 26 be 23 11 9c bb
       -0.19025221 -0.12839065 -0.16268714 -0.004762785
000390 1b 96 5f bd 1f 11 f2 3d 7d 93 c8 3d ae 7f 96 3d
       -0.05458651 0.11819672 0.09793756 0.07348572
0003a0 f3 10 b4 3d 3d 52 57 3d c6 0b 80 bd 3d 6a c7 3b
       0.08792295 0.052568663 -0.062522456 0.0060856626
0003b0 04 d7 86 bd 7f 94 70 be 4a 02 95 bd 64 2a 07 be
       -0.0658398 -0.23494147 -0.07275827 -0.13199764
0003c0 cc 54 2f bd 2d 96 15 bd 8f 20 3b be 64 be 20 be
       -0.042805478 -0.036520172 -0.18274139 -0.15697628
0003d0 77 5c 79 be 3b 25 3f be ee 57 12 be 9a 37 6b 3d
       -0.24351679 -0.18666546 -0.14291355 0.057426073
0003e0 0e 02 c0 bd ab 14 6a be 98 74 58 bc 56 cd ed bd
       -0.09375392 -0.22859447 -0.013211392 -0.1161143
0003f0 14 45 1a be 88 6a da bd 70 20 07 be da 30 83 3d
       -0.15065414 -0.106648505 -0.13195968 0.06405802

network.2.bias f4 [64]
000000 41 32 83 bd 28 e3 ba be dd f4 43 be bd 11 ed bd
       -0.064060695 -0.3650143 -0.19136377 -0.11575649
000010 be b8 48 be e8 d9 7f 3c a0 8a 76 be 44 e8 f5 bc
       -0.19601724 0.015615918 -0.24076319 -0.03001798
000020 cd 7a 39 bd d0 87 0f be c3 76 dd bd 8f 59 65 3e
       -0.045283128 -0.14016652 -0.108136676 0.22397445
000030 4d e0 14 bd 41 95 3e ba 99 9d f6 bd a3 6b a7 bd
       -0.036346722 -0.00072701654 -0.12041778 -0.08174827
000040 ff fd a6 3e 07 55 3d be 70 90 f3 bc a0 34 94 bd
       0.3261566 -0.18489467 -0.02973196 -0.072366
000050 cf 54 9c be 62 eb 0b be 8e ec d0 3e 65 fa ed be
       -0.30533454 -0.1366401 0.40805477 -0.46480098
000060 37 43 61 3d 3f 28 99 3e 7a 62 8d bd 4c d9 38 be
       0.05499574 0.29913518 -0.069035485 -0.18051642
000070 58 cb 74 be ae e8 79 be 2f 16 dd bd 61 d6 ff bd
       -0.23905694 -0.24405167 -0.10795247 -0.124920614
000080 e8 16 85 3d 85 0c c7 3d b6 fb 95 be 12 86 a9 bd
       0.0649851 0.09719185 -0.29293603 -0.08277525
000090 84 d4 e8 3b bc 71 00 3f 06 5e e4 bd f0 0f 33 3e
       0.007105412 0.50173545 -0.11150746 0.17486548
0000a0 26 99 ba be bc 9c 6b 3c ad 6c 2e be 98 ab 88 be
       -0.36444968 0.01438063 -0.17033644 -0.26693416
0000b0 33 31 72 be 74 5a 82 3e 49 39 ad bc a2 6a 99 3e
       -0.2365158 0.25459635 -0.02114548 0.29964167
0000c0 d5 f6 b6 3e aa 68 0b be 9a ac de be e6 97 91 be
       0.35735193 -0.13614145 -0.4349106 -0.28436202
0000d0 12 cb d1 3e 81 2f a5 be 26 95 7f be ed 21 5d 3e
       0.40975243 -0.32262805 -0.2495924 0.21594973
0000e0 47 aa 35 be 4f d9 af bd a2 21 fd be 66 c4 a3 3e
       -0.17740737 -0.0858637 -0.49439722 0.31985778
0000f0 46 a1 b4 3e 00 ce 29 bd 04 9d bb bd 52 f6 da bd
       0.35279292 -0.041456223 -0.09160808 -0.10691513

network.4.weight f4 [3, 64]
000000 03 2c 70 bc 41 fc a6 3d 46 25 b6 bd 79 04 fb 3c
       -0.014658931 0.08153582 -0.08893828 0.030641781
000010 22 93 3d 3e 66 48 e0 bc be a2 c6 bd e7 e4 75 3d
       0.18513158 -0.027378272 -0.09699009 0.06003275
000020 d2 28 89 3e 31 86 c5 bd c6 38 50 3d 9b 7c 63 bf
       0.26788956 -0.096447356 0.050835393 -0.8886201
000030 ab 45 9c 3d a9 50 3f be 45 fc 13 bd 74 f9 40 bd
       0.076304756 -0.18683113 -0.036129255 -0.047112897
000040 be ee 37 bd 47 10 41 3d 4c aa 13 3e 0c 32 0f 3e
       -0.044905417 0.047134664 0.14420432 0.13983935
000050 8d b9 32 3d c7 96 12 bb c1 0b 2f bd d8 1a 83 3e
       0.043633986 -0.0022367702 -0.04273582 0.25606418
000060 a1 8b 0b bf 3a 1c 03 3d a9 22 11 be f8 d2 ba 3c
       -0.5450993 0.03200934 -0.14173378 0.022805676
000070 82 d0 4d 3e ba 74 88 bd b8 4a 38 3c f2 87 ff bd
       0.2009907 -0.06662889 0.011248283 -0.124771014
000080 d0 f7 e4 3c 01 cb 0f be d1 48 1b 3f ec 17 73 3d
       0.027950197 -0.14042284 0.60657984 0.059348986
000090 a7 8e 22 3c da 4d 9a 3d 93 76 00 3b 42 31 a4 3d
       0.009921706 0.0753438 0.0019601926 0.08017208
0000a0 6b e5 ea bc e7 e9 a2 bd 96 be bd 3b fa a0 9c 3e
       -0.028673848 -0.079547696 0.005790542 0.30591565
0000b0 4c 47 fd bd f2 61 86 3e a5 7c 45 3d 73 55 a0 bd
       -0.123671144 0.262466 0.048214573 -0.07828798
0000c0 21 0d e6 be 92 d5 a5 3d c0 89 e6 bd a4 14 c8 be
       -0.44931892 0.08097376 -0.112567425 -0.39078248
0000d0 c3 eb b5 3e a0 84 0e 3d 90 29 97 3d 1f 5e 42 3e
       0.35531434 0.03479445 0.07380974 0.18981217
0000e0 ab 06 1c bc ea 2b 55 3d 32 d1 d5 3c 4e 14 f7 ba
       -0.009523074 0.052043833 0.026100729 -0.0018850656
0000f0 23 c7 e5 bf 85 6d 8d bf bb 02 42 3e 60 74 1f bd
       -1.7951397 -1.1049048 0.18946354 -0.038929343
000100 29 63 1a 3e 0d 27 97 3e 36 e3 0d 3e 94 e8 11 3c
       0.15076889 0.2952198 0.13856205 0.008905549
000110 1a e3 0b 3e 7f fc 9f bd fc f2 a6 bd 5d 84 87 bd
       0.13660851 -0.07811832 -0.08151814 -0.06617043
000120 05 19 9f bd d2 5f 33 bf 1f 58 90 3c 7a 31 82 bc
       -0.07768444 -0.70068085 0.017620144 -0.015892733
000130 3a ec 4f 3b 90 f0 a9 be 58 e0 da 3d f9 81 d2 bd
       0.0031726495 -0.33191347 0.106873214 -0.102786966
000140 06 30 01 3d 5d 3e 2c bf 73 fc ee bd e0 7e b1 3d
       0.03153994 -0.6728266 -0.116692446 0.086667776
000150 ad 1f 6f 3d 5e 67 c5 3c f5 88 b0 bd a0 e9 0e 3e
       0.058379818 0.02409714 -0.086198725 0.13956308
000160 6a 82 85 be de 5b 00 3e 29 ab 4e bd 88 a5 de 3c
       -0.2607606 0.12535045 -0.0504562 0.02717854
000170 2b 29 1a be 93 3c 00 3e e1 c7 24 3d e7 06 67 be
       -0.15054767 0.12523107 0.040229682 -0.22561227
000180 8f e1 75 bf 2e aa 8f 3e 01 c4 14 bf c3 35 61 3d
       -0.960473 0.28059524 -0.5811158 0.05498291
000190 23 27 aa bd 80 80 7c bf 1a a7 e1 bd c2 cc 08 bd
       -0.08308246 -0.98633575 -0.110182 -0.033398397
0001a0 83 41 a7 bd 94 5c 8d bd a6 b6 b2 3d 90 63 1b be
       -0.08166792 -0.069024235 0.08726244 -0.15174699
0001b0 b9 03 34 bd 7c b4 5b bf 1a c4 83 3d 87 18 e5 3d
       -0.043948863 -0.8582227 0.06433888 0.11186319
0001c0 b5 b9 93 bf b4 53 d0 3c c9 f9 6e 3e 40 04 f6 3d
       -1.1541048 0.025430538 0.23337473 0.120125294
0001d0 28 18 94 3e 5f e4 99 3c d9 d6 5e bc 2c db e0 3d
       0.2892468 0.018785654 -0.013601028 0.10979304
0001e0 c3 d0 7a 3d 02 fd 09 3d 9b e6 90 bd e2 d2 d8 3c
       0.061234247 0.033688553 -0.070752345 0.026467744
0001f0 8d 8d ea 3c 83 ad e4 3c a2 30 18 3e dd 58 35 bf
       0.02863195 0.027914768 0.14862302 -0.7083872
000200 19 93 6e 3d f2 8e 67 3e b5 94 08 3d 58 1b 55 3d
       0.058245752 0.22613123 0.033344943 0.05202803
000210 b6 73 34 3e 2d 61 db bc d9 23 8f bc fd 86 f4 bc
       0.17622265 -0.026779735 -0.017473148 -0.029849524
000220 8d 08 b4 3d 23 c1 21 3e 99 ae a6 3d 81 5a 4e be
       0.087906934 0.15796332 0.081387706 -0.20151712
000230 55 b1 a2 bd 6d 32 6a 3e 14 0d 0f 3c 63 fa c5 3c
       -0.0794398 0.22870798 0.008731145 0.024167245
000240 fe 48 6c bf c7 0f 1f 3c 04 78 43 bd dc 95 6c bd
       -0.9229888 0.009708351 -0.047721878 -0.057760105
000250 2f de 2a be 0b 7e 13 3d fc 85 22 bf 6f 3d 0f 3e
       -0.16686319 0.036008876 -0.63485694 0.13988279
000260 2d c5 e4 bd fc 4a e5 3d 4e 4d 48 bd 2a 5f 5e 3b
       -0.11170421 0.11195943 -0.04890185 0.0033931234
000270 0a 04 24 3e 10 24 2c be 9a d1 ad bc cd c6 e6 bd
       0.16017166 -0.16810632 -0.02121811 -0.11268387
000280 dc 1b b5 bd fd 09 d8 bd 77 33 e7 3d d1 b8 f1 bb
       -0.088432044 -0.1054878 0.11289113 -0.007376768
000290 88 b9 33 bc 90 6f 27 3d e4 20 91 3d 10 f1 33 3e
       -0.010969527 0.04087788 0.070863515 0.17572427
0002a0 02 58 64 3d 3e 38 da bc a5 f3 97 bd ed 22 01 3c
       0.055747993 -0.026638146 -0.074195184 0.007881862
0002b0 db 99 df bd b2 9e 21 3e 95 ae 68 3d 34 6c 02 bf
       -0.109180175 0.15783194 0.05680712 -0.50946355
0002c0 2a a9 a6 bd 18 62 f8 bc ef 16 e0 be 9d 85 a3 bc
       -0.08137734 -0.030320212 -0.43767497 -0.019961173
0002d0 4f b1 58 3e bc 89 4c 3d cd f1 63 bd db d7 45 3d
       0.21161388 0.04993604 -0.05565052 0.04830156
0002e0 17 a9 e4 bd 34 20 60 3d fe da 3b 3e 90 9c b5 be
       -0.11165064 0.05471821 0.18345258 -0.3547101
0002f0 a1 6a f7 bc 00 7c 2e 3e 91 d1 e0 bd ba ca 88 bd
       -0.030202212 0.1703949 -0.109774716 -0.06679292

network.4.bias f4 [3]
000000 6d c8 4c be 45 d2 93 3e d0 6f d6 3e
       -0.19998331 0.2887136 0.4188218
