20250331/best_model.pth (torch, 283302 bytes, 6 tensors)

network.0.weight f4 [256, 13]
000000 86 14 94 3e 81 33 c7 3e 34 4c 45 3e a0 72 83 3d
       0.28921908 0.38906482 0.1926735 0.06418347
000010 63 17 00 be 8b fe 53 bd 0e 01 90 3d 6d 64 9e 3d
       -0.12508921 -0.051756423 0.07031451 0.077339984
000020 ea b2 00 be d7 dc 86 3d ae c9 9c bd 25 1d 93 3c
       -0.1256825 0.065850906 -0.07655655 0.017958233
000030 a9 9c 6a be 1c 3c c7 3e cb 04 5b be 94 61 77 bd
       -0.22911324 0.38913047 -0.21388547 -0.060395792
000040 16 84 9b bd c2 96 22 bd b1 4d b7 bd 04 f7 4e 3e
       -0.07593553 -0.039694555 -0.08950365 0.20211416
000050 78 fc a5 bc 38 83 3d be 0e eb 93 be 25 7d 73 be
       -0.020261988 -0.18507087 -0.2889027 -0.23778208
000060 c6 27 4c 3e 93 02 ce be 49 28 82 3e 1c 49 37 3d
       0.19937047 -0.4023634 0.2542136 0.044747457
000070 3e bf eb bd 4d c7 d8 be 55 e9 f4 bc c1 50 cf bd
       -0.11511086 -0.42339554 -0.029896418 -0.101228245
000080 13 be 44 be 87 19 9d be 5b 13 93 bd b9 55 a8 be
       -0.19213133 -0.30683538 -0.07181426 -0.328779
000090 cd e5 3e 3e 3d 3d 71 3e 03 25 a6 be a4 f7 72 bd
       0.1864235 0.23558517 -0.32450113 -0.0593182
0000a0 1b b7 d6 3e 3b d1 8c be 7d d3 f0 3d 79 d0 94 3e
       0.41936573 -0.2750338 0.11759088 0.29065302
0000b0 42 92 8a bc 5c 9b c7 bd b5 a4 80 3e 11 ab a6 3e
       -0.016915444 -0.09746429 0.25125661 0.32552388
0000c0 c1 91 44 bd c4 54 5c be ca f1 21 3d a5 d8 6b 3e
       -0.047990564 -0.2151671 0.03953723 0.23031862
0000d0 29 9c ba bd a3 d5 94 3e 02 ad 18 3e c5 b0 58 3e
       -0.091118164 0.29069242 0.14909747 0.21161182
0000e0 33 59 53 bd e5 e9 18 3e a4 e7 c1 be 73 e4 0c be
       -0.05159874 0.14932974 -0.3787204 -0.13759021
0000f0 97 0c 3b 3e 0e b3 80 3d 44 27 89 be b3 af 6f 3c
       0.18266521 0.06284152 -0.2678777 0.014629292
000100 bf 7d a1 be 6c 11 28 bd 0c a4 21 3e f4 fd 86 3e
       -0.3154125 -0.04103224 0.15785235 0.26365626
000110 9e 83 7c be 5e 07 c0 bd 46 3a 9e be 59 73 df 3d
       -0.24659583 -0.09376405 -0.30903834 0.10910673
000120 a7 20 9e be cb 03 93 be 8d e8 c9 be 04 99 37 3e
       -0.30884287 -0.2871383 -0.39435235 0.17929465
000130 e5 dd 16 3e 2f 3b 24 bf 50 51 c7 3e bf 95 e9 3e
       0.14733084 -0.64152807 0.38929224 0.4562206
000140 bb 2b b5 3e ee 3f 88 3c 31 f2 05 3e 52 e7 82 be
       0.35384926 0.016632047 0.1308067 -0.25567108
000150 64 08 9a bd 4c b9 5d 3e fc ff 4b bd 7e cf 4b be
       -0.07521132 0.21652716 -0.049804673 -0.1990337
000160 fb ad 2a 3c 78 45 03 3f b8 d9 01 3d 03 bc e1 3e
       0.010417457 0.51277876 0.031701773 0.44088754
000170 85 ab d1 be e1 c2 01 3f 01 b2 e8 ba 7c 10 54 3d
       -0.40951172 0.50687987 -0.0017753245 0.051773533
000180 92 10 0a 3e 8d 1c 64 3e ac b5 ca 3d 5a 2a c0 bd
       0.13482884 0.22276516 0.098979324 -0.09383078
000190 7f b6 85 bd 81 0c b2 bc 86 ef 87 be dd 49 0d be
       -0.06528949 -0.021734478 -0.2654993 -0.13797708
0001a0 10 74 d8 bd b0 c3 00 3e b6 76 30 3e 55 19 16 3e
       -0.10569012 0.12574649 0.17232785 0.14658101
0001b0 1c ed 41 bd 79 f9 f7 be 9f 65 3e 3e 87 44 27 3b
       -0.047345266 -0.4843252 0.18593453 0.0025523023
0001c0 e4 4c 46 bc 65 84 45 be d7 2e f1 3d 18 83 ee be
       -0.012103293 -0.19288786 0.11776512 -0.46584392
0001d0 08 bb 8a be b5 49 c7 3e 08 68 80 3e 36 9e ca 3e
       -0.2709582 0.38923422 0.2507937 0.3957383
0001e0 52 b2 9b bc 28 78 f5 bd f6 26 74 be d8 94 0e bd
       -0.019005928 -0.119858086 -0.23842987 -0.034809917
0001f0 04 ce c5 bd 3f 82 16 3e a6 62 01 be 47 fa 9e bd
       -0.09658435 0.14698122 -0.12635288 -0.0776258
000200 4e ec c1 3d 15 ab 31 3e b4 ed bb 3e c4 82 b1 3e
       0.094689 0.17350419 0.3670479 0.3467008
000210 f4 61 35 be f4 6f 53 bb 54 ae 40 be c0 c4 f2 be
       -0.17713147 -0.0032262774 -0.18816501 -0.47415733
000220 41 d1 28 bd a7 dd 46 be 45 6a 18 3e 1b b6 8a 3d
       -0.041215185 -0.19420491 0.14884289 0.06773015
000230 13 53 6b be 42 c5 88 3e 48 76 83 be 75 75 91 3e
       -0.22980909 0.26712996 -0.2567618 0.28409925
000240 7e 64 e0 3e d2 48 c7 3e 85 bf 7e be 0c a9 58 be
       0.4382667 0.38922745 -0.24877746 -0.21158236
000250 11 7b 07 3e 38 9d 82 be 94 58 9b 3d 53 af 5b be
       0.1323054 -0.25510573 0.07585254 -0.214536
000260 7d bd 16 3e 8b 8e f5 3b ad 24 c6 3e bd 3a 06 3e
       0.14720722 0.007493799 0.38699856 0.13108344
000270 ff b6 b1 bd 30 54 02 bf 8d 9a 07 3f b4 99 fc bd
       -0.08677482 -0.5090971 0.529702 -0.12334004
000280 c4 f7 33 3e 6e e9 49 bd 37 42 1a be 25 ec 60 bc
       0.17574984 -0.04929488 -0.15064321 -0.013728176
000290 30 83 a3 3c c6 4d 43 3e 41 07 2e 3e d0 c5 22 bd
       0.019960016 0.19072637 0.16994955 -0.03973943
0002a0 0c 04 ae 3e 36 6f 71 be b1 03 04 be 3a c0 c9 be
       0.33987463 -0.2357758 -0.12892033 -0.3940447
0002b0 d7 61 e1 3c 2b 49 83 3e 22 75 cc 3d 1d e2 44 3d
       0.027512474 0.2564176 0.09983279 0.0480672
0002c0 e6 3c 79 3e cf 94 08 3e 2d af 69 3e 78 ca 03 3e
       0.24339637 0.13338016 0.2282073 0.12870204
0002d0 44 85 92 be 69 17 53 be b5 15 7c 3c ca ad 65 3d
       -0.286173 -0.20614399 0.015386035 0.05607394
0002e0 50 99 a8 3d 8c e4 87 3e 93 f4 9b be 1a 4e 9d be
       0.08232367 0.26541555 -0.30460033 -0.3072365
0002f0 af 6e 1c be e6 db 5b 3e 18 b8 c2 be c1 87 c2 be
       -0.15276597 0.21470603 -0.38031077 -0.37994197
000300 a1 3b 70 bd 28 1c e3 bd fa 8c 21 bf da c3 b0 be
       -0.058650617 -0.11089355 -0.6310574 -0.34524423
000310 b7 41 a8 be 2e b2 7f be 2d 83 b3 3e 18 9f 1c be
       -0.32862636 -0.24970314 0.35061017 -0.15295064
000320 75 11 76 3e 7a 87 30 be 75 64 87 3e 17 aa 8d bd
       0.24030097 -0.1723918 0.2644383 -0.06917208
000330 5b e6 56 bd ec 81 d3 bd 19 56 f1 bd 58 1b 92 bd
       -0.052465778 -0.10327515 -0.11784 -0.07134122
000340 17 fa b5 3e 66 40 1c 3d 7b 97 39 3e b5 46 3d be
       0.35542366 0.038147353 0.18124191 -0.18484004
000350 15 1b a8 bd 5a 12 b5 bd 9f 23 6e 3e 2a 97 0d 3e
       -0.082082905 -0.08841391 0.23255776 0.13827196
000360 33 ce 80 be bd 67 29 be 77 ad ca be 92 7a 32 3e
       -0.25157318 -0.1654348 -0.39585468 0.1742957
000370 b8 b9 75 be 7b b8 a4 3e ec 22 68 be cf f4 8e 3e
       -0.23996627 0.32171997 -0.22669572 0.2792115
000380 fe e5 56 3e a3 f6 4c 3e ec 01 3f 3d d5 f7 2e 3e
       0.20986173 0.2001596 0.046632692 0.17086728
000390 16 53 84 be a0 f8 8a bc 1d d3 41 bd 00 f0 9d bc
       -0.2584464 -0.016964257 -0.047320474 -0.01927948
0003a0 0f b8 8b be 0d 96 77 be b5 36 5b 3d ce e1 16 3e
       -0.27288863 -0.24178334 0.05351897 0.14734575
0003b0 b2 50 62 be a6 e3 2d 3e 2f 10 11 be df 6e 11 3e
       -0.22101095 0.16981372 -0.1416633 0.1420245
0003c0 57 8d 8e be 2c d1 d5 3c 2a d7 75 be 1a ad 8a be
       -0.2784221 0.026100717 -0.2400786 -0.2708519
0003d0 44 b5 a5 3d e4 51 95 be 12 c1 0f bf 35 02 09 be
       0.08091214 -0.2916404 -0.56153977 -0.13379748
0003e0 3b 16 17 be fa 4b 75 bb ae fc cc bd 82 9f 8e 3e
       -0.14754574 -0.0037429319 -0.10009132 0.2785607
0003f0 eb 84 9e 3e a1 94 b8 3e a3 72 56 be cc 1e f6 be
       0.30960783 0.36050895 -0.20942168 -0.4807037

network.0.bias f4 [256]
000000 a5 38 2f be 88 fa a4 bd 7e 20 a5 3d 8a 0d a1 bd
       -0.17111452 -0.080555975 0.08062838 -0.078639105
000010 2d 1c 9a bc 70 7f a5 3d 00 7b 9e 3c 87 63 e7 3d
       -0.018812263 0.080809474 0.01934576 0.1129828
000020 39 eb 2a 3e 53 83 63 3d e1 94 3b 3e a3 b4 38 bd
       0.16691293 0.055545162 0.18318512 -0.045094144
000030 1e 60 7f 3d 4e 52 14 3e 88 9c 36 bd f3 3d e7 3d
       0.062347524 0.14484522 -0.044582874 0.11291113
000040 4b a3 58 be dc dd 10 be 96 e3 64 3e da f6 3b be
       -0.21156041 -0.14147133 0.22352442 -0.18355885
000050 41 e3 bc 3c 31 b8 90 3e 04 a0 3a be 20 5f d0 3d
       0.023057582 0.28265527 -0.18225104 0.10174394
000060 6c 5c aa 3e 0d 51 0d 3e 91 a6 53 be 68 22 57 3e
       0.33273637 0.1380045 -0.20669009 0.21009219
000070 1f 84 13 3e a7 d8 9c 3d cc 6b 8b 3e 91 e8 55 be
       0.14405869 0.07658511 0.2723068 -0.20889498
000080 20 45 7d 3e f7 0b 42 3e 7d b7 89 be bf 68 f9 bd
       0.247334 0.18949877 -0.26897803 -0.12178182
000090 5c 5f 51 be 3f 15 ee bd ce cf 60 3e 32 e5 ea 3e
       -0.20446533 -0.11625146 0.21954271 0.45877987
0000a0 83 cf c2 bc 1f d0 c3 3d b8 b2 01 3e 49 0c 90 be
       -0.02378059 0.0956118 0.12665832 -0.28134373
0000b0 22 bf d5 bd 28 14 71 3e b9 a1 16 3e 35 1a 3e 3d
       -0.10436846 0.23542845 0.1471013 0.04641171
0000c0 9a 01 c5 3c c3 67 22 be 63 cd 72 bd be 00 ee 3d
       0.024048615 -0.15859894 -0.059277903 0.11621235
0000d0 06 52 48 3e 7d 57 07 3e 12 90 fc 3d 59 62 3f 3d
       0.1956254 0.13216968 0.12332167 0.04672465
0000e0 0f e4 dc 3d c1 0c d3 3a d0 57 43 be 31 56 57 be
       0.10785686 0.0016101823 -0.19076467 -0.21028973
0000f0 da b3 7e be 7b 18 4b bd eb 26 64 be e0 11 55 be
       -0.24873295 -0.049583893 -0.22280471 -0.208076
000100 74 88 d6 bd c2 d3 39 be 0b b4 1e 3e 0f 42 ac 3d
       -0.10475245 -0.18147185 0.15498368 0.08411037
000110 99 4c 04 be 87 fa 28 3d b5 58 11 3e c5 b4 6f 3e
       -0.12919845 0.041254546 0.14193995 0.23408802
000120 02 45 2b 3c 67 61 17 be 24 43 88 be 67 5d 6b 3e
       0.010453464 -0.1478325 -0.26613724 0.22984849
000130 14 be af be 3f 16 85 3e 52 fd 2e 3e 46 63 5a 3e
       -0.34324706 0.25993535 0.17088822 0.21326932
000140 a4 64 52 3d 7c 25 88 3e 79 50 9c 3e f4 f1 20 bd
       0.05136551 0.26591098 0.30530146 -0.039293244
000150 a1 f8 a8 bd 8a 62 48 be 2b b2 20 3d 57 e6 a1 3d
       -0.08250547 -0.1956884 0.039232414 0.07905262
000160 c8 5a 60 3e e1 f6 1a 3e 51 00 97 bc d9 ed 8c 3e
       0.2190963 0.1513324 -0.018432768 0.27525213
000170 79 67 34 3e 6c df 83 be 36 37 62 3e ad f1 0c 3e
       0.17617597 -0.25756395 0.22091374 0.13764067
000180 93 f3 cd bd cb c8 4f 3d 7d 58 b9 bd 44 7b 4e be
       -0.10056224 0.0507286 -0.09050081 -0.2016421
000190 4f 26 5d 3b 30 c6 2f 3e 38 7d d6 bd 61 f7 39 3d
       0.0033744758 0.17165446 -0.10473102 0.045401935
0001a0 20 b8 a4 3d 34 b0 31 be 75 32 fd bd 00 3d 8e be
       0.080429316 -0.17352372 -0.123631395 -0.27780914
0001b0 78 1c 7e 3e bd cf 5a be 28 77 37 3e 00 5a c9 3e
       0.24815547 -0.21368308 0.17916548 0.39326477
0001c0 61 cc ab 3e 0c 3b f4 3d b4 1a 6f 3e ba c6 28 be
       0.33554366 0.11925325 0.2335003 -0.16482058
0001d0 0c 64 c2 bd d3 42 0e be 3b 61 8e 3d fb c1 91 3d
       -0.09491739 -0.13892679 0.06952139 0.07117077
0001e0 00 cb 80 3d 9f ce 8a be 25 de a5 be 6f 5c 6b 3e
       0.06288719 -0.27110764 -0.32396045 0.2298448
0001f0 02 2e d2 3d af 4f 9c bd 0b e3 6e 3e d9 a2 24 bd
       0.102626815 -0.07632386 0.23328798 -0.040194366
000200 4f 4b 51 be 53 08 d4 3d 51 76 3c 3e 9a 58 38 be
       -0.20438884 0.1035315 0.18404509 -0.18002549
000210 5b 92 57 3d c5 52 12 bd e7 44 dc 3c e0 f2 d7 bd
       0.05262981 -0.035723466 0.026888324 -0.105443716
000220 b7 fb 27 bd 81 bd 0a 3e af f1 23 3e 24 ff 08 3e
       -0.04101154 0.13548853 0.16010164 0.13378578
000230 cf d0 76 bd a4 e9 2d be ed 28 98 3d ab 9f 88 3e
       -0.06025773 -0.16983658 0.07429681 0.26684317
000240 7e 9a 1c be f6 52 d3 3c 82 b5 4b 3e 00 f2 5d 3e
       -0.15293309 0.025796395 0.19893458 0.21674347
000250 c2 fe 9a 3d 2d 12 e7 bd 38 4c 6d 3d 0e 4c 9b bd
       0.075681224 -0.11282764 0.057934016 -0.07582866
000260 77 6d 8a 3d 5f ce ad 3e 18 a9 18 be a3 a9 22 3e
       0.0675916 0.3394651 -0.14908254 0.15885024
000270 e3 be 8c 3e 03 ef 0f be ed 95 7f 3d 30 a6 71 be
       0.27489385 -0.1405602 0.06239884 -0.23598552
000280 0c 02 98 3e 53 e2 3b be 01 b2 24 be 17 75 58 bb
       0.29689062 -0.18348055 -0.16083528 -0.0033028775
000290 6a a8 fa 3d 57 94 a1 3e 1d 86 11 bc e2 94 20 be
       0.12239154 0.31558487 -0.008882073 -0.15681794
0002a0 f5 e2 be 3d df 9d c0 3d bc 92 90 bd 14 2e 31 be
       0.09320632 0.094051115 -0.07059237 -0.17302734
0002b0 e7 da 2d 3e 11 70 02 be ea 9d be 3d 7d 3a 15 be
       0.16978036 -0.12738062 0.093074635 -0.14573093
0002c0 1d 74 19 be c0 51 43 be 8d 26 12 3e 4d 81 ff bc
       -0.149857 -0.19074154 0.14272518 -0.031189585
0002d0 60 82 3f b8 cf 97 a3 bd 73 86 15 3e 8d f9 db 3d
       -4.565937e-05 -0.079879396 0.1460207 0.107409574
0002e0 c9 a9 d1 3d 2a cb 48 be 9c 1c e3 3c 06 e5 ff 3d
       0.10237462 -0.19608751 0.027723603 0.12494855
0002f0 14 3d 2c be a1 f3 42 3e 32 d5 7b be 08 4f 56 be
       -0.16820174 0.1903825 -0.24593046 -0.20928586
000300 07 23 95 3e aa ca 93 bd 43 fe 8c 3d 6c ca 8e 3d
       0.29128286 -0.072163895 0.06884434 0.06972203
000310 10 8a 8f 3e a8 6e 81 3e 8a 84 37 3d a4 f6 34 3e
       0.2803502 0.25279737 0.044804133 0.17672211
000320 31 3f 2e be 84 77 1b be 2f 1d 80 3d 0e bf 35 bd
       -0.17016293 -0.1518231 0.06255566 -0.044371657
000330 40 69 83 be 87 c8 64 be 0b 57 94 be 49 a4 e8 bb
       -0.25666237 -0.2234212 -0.2897266 -0.0070996624
000340 d0 7f a2 3e ac dd c9 bd 03 ab e0 bd a4 26 28 bd
       0.31738138 -0.09856734 -0.10970118 -0.041052476
000350 a0 a0 8f 3d 8e bf 3a 3d c7 f2 12 3e 96 82 39 3e
       0.07013059 0.045592837 0.14350425 0.18116221
000360 2b ef 37 3e c8 b3 02 be c9 88 34 bc 4d f6 a2 bd
       0.17962329 -0.12763894 -0.01101894 -0.079571344
000370 51 d4 16 be d7 bc 94 3e 3c 7e c6 3e bb 29 13 bd
       -0.1472943 0.29050323 0.38768184 -0.03592847
000380 6a cd b2 3e ef c0 fb bb 18 90 5b bb b3 d3 9c 3e
       0.34922343 -0.0076829116 -0.0033502635 0.30630264
000390 2c 5c 06 be 6e 81 99 3e 85 4b 37 bd 8a cc dc bd
       -0.13121098 0.2998156 -0.044749755 -0.107812
0003a0 65 b5 09 3e ee 89 94 be d1 a5 52 3e 28 12 f1 3b
       0.13448103 -0.29011482 0.20571066 0.0073569007
0003b0 2a 95 45 be 19 cd a3 3e 27 d0 8a 3e 71 f9 94 3e
       -0.19295183 0.31992415 0.27111933 0.2909656
0003c0 cd 03 9c 3e d9 84 d7 3d 71 c0 5e 3e e9 c9 f8 3d
       0.3047165 0.105233856 0.21753098 0.12147886
0003d0 35 f8 96 3e 78 df f6 3d 12 89 fc bc 4b 27 6a be
       0.29486242 0.12054342 -0.030827079 -0.22866552
0003e0 a8 48 fb 3d 36 c0 19 be c7 77 44 3d 98 4a 89 be
       0.122697175 -0.15014729 0.04796579 -0.26814723
0003f0 da da 9b 3e 0b 8d ae bd 00 8a 72 3e 00 ee 21 be
       0.30440408 -0.085229956 0.23685455 -0.15813446

network.2.weight f4 [256, 256]
000000 78 f9 27 bd 78 82 be 3c 20 68 71 3b 8f 9d c8 bc
       -0.041009396 0.023255572 0.0036835745 -0.024489192
000010 cf df 5c bb 2e 73 b0 bc 44 85 a7 bb 87 9c d6 bc
       -0.0033702736 -0.021539297 -0.005112322 -0.026197685
000020 07 6f d0 3c 06 15 d1 bc 12 10 df 3c e9 47 01 3d
       0.025443567 -0.02552272 0.027229343 0.03156272
000030 42 ec a0 3a 0d 84 4e bd 34 96 bb 3c 53 4a 27 3d
       0.0012277442 -0.050418902 0.02289877 0.040842365
000040 50 52 b2 3b b6 1d 5e 3d 8c e4 44 bd 29 65 45 3d
       0.0054419413 0.054227553 -0.04806952 0.048192177
000050 08 01 48 bd 01 0b 5a 3d 32 d8 c6 bc b0 64 5e bc
       -0.04882911 0.05323315 -0.024273012 -0.01357381
000060 35 70 07 bd 59 ab 0a 3b d0 cc f7 bb bd d7 5a bc
       -0.033065993 0.002115926 -0.0075622573 -0.0133571
000070 15 70 28 3d 91 37 a4 bc a6 ed 2e 3c 8e 8d 84 bd
       0.041122515 -0.020046027 0.010676777 -0.06472312
000080 04 79 38 bd 99 59 87 bd b9 fa c8 bb 0a f4 e4 3c
       -0.045037284 -0.06608886 -0.006133404 0.027948398
000090 b0 79 8f bb 41 98 74 bc 31 60 09 bc 3f 71 c1 bc
       -0.00437852 -0.014928878 -0.00838475 -0.02361357
0000a0 ad b4 14 3d e4 f1 63 3d c4 55 17 bd 62 1f 80 3b
       0.03630512 0.055650607 -0.036947027 0.003909991
0000b0 e8 b7 be bb e9 8d 9e bc b9 04 8c bc b7 ef 50 3d
       -0.005820263 -0.019354777 -0.017092096 0.05100986
0000c0 57 2f df bb 70 31 ce bb 42 24 7f 3d 00 e2 27 bd
       -0.0068110633 -0.0062925145 0.062290438 -0.040987015
0000d0 48 64 ee bb 66 6f 65 3d 6a 41 43 bd 37 da b9 3c
       -0.007275138 0.05601444 -0.047669806 0.02268706
0000e0 7a ab 1d 3d 8c 42 59 bd 4e 5a b9 3c c1 c5 55 bd
       0.03849361 -0.05304198 0.022626068 -0.052190546
0000f0 e4 b9 81 3b b3 77 70 3c 20 47 0a 3c cb ba f5 bc
       0.0039589275 0.014676976 0.008439809 -0.029996296
000100 94 76 dc bc a1 6e b0 3c 71 14 d4 bc 54 28 92 bc
       -0.026912011 0.021537127 -0.025888653 -0.017841496
000110 69 0f 2e bd 2a b6 d3 bc 40 95 88 bc 06 73 2a bd
       -0.042495165 -0.025843699 -0.01667273 -0.0416136
000120 29 88 c0 bc be 46 3b 3d bc 63 75 bd f7 c6 35 3c
       -0.023502426 0.045721762 -0.059909567 0.0110948
000130 84 ce e3 bc 0b 2b 70 bc 82 91 3c 3d 91 91 b5 bc
       -0.027808435 -0.0146587 0.046037205 -0.022164138
000140 1b 9c ed bb 21 f8 9c bc 69 ec 0b bd dc 47 15 bd
       -0.0072512752 -0.019161286 -0.034161005 -0.036445484
000150 d8 89 37 bc 0b 24 10 bc f9 a0 65 bd e2 e6 68 bc
       -0.011202298 -0.008797656 -0.05606172 -0.014215203
000160 eb 21 9b 3b bb 5c 8c bc b9 45 10 bd 76 60 65 3d
       0.004734268 -0.017134061 -0.035222743 0.056000195
000170 87 f7 09 bd 72 73 30 3c c9 d5 5a 3c 12 75 95 3c
       -0.033683326 0.010769712 0.013356634 0.0182443
000180 2e d5 76 bd 3b 89 eb bc c4 b7 f2 3c 1a 78 48 bd
       -0.060261898 -0.02875196 0.029628642 -0.048942663
000190 9e a0 6a 3d 8f 86 6f ba 19 70 1b 3d 91 74 01 3d
       0.057282083 -0.0009137177 0.0379487 0.031605307
0001a0 c3 14 07 3b 66 92 5b 3d 3f 55 10 bd 24 61 b7 3c
       0.002061174 0.053606413 -0.035237547 0.022385187
0001b0 88 40 2b 3d 60 3c 6c bd 1d 37 ac bc 5f 99 d2 3b
       0.04180959 -0.057674766 -0.021022374 0.0064269747
0001c0 52 1e 8c bc 17 f4 56 3d 73 80 ba bc fa c7 62 3d
       -0.017104302 0.052478876 -0.022766327 0.055366494
0001d0 8a 94 73 bd 60 75 82 bb 77 ac 11 3d 9c 46 7c 3b
       -0.05946783 -0.0039812773 0.035564866 0.0038494235
0001e0 03 db 0e 3d 30 21 a7 3b c1 21 6f 3d 22 27 4f bb
       0.034876835 0.005100392 0.0583818 -0.0031609018
0001f0 1e 84 b9 bb e1 e6 15 bd 4a 2a 89 39 a6 b8 28 bc
       -0.0056615015 -0.036597136 0.00026162184 -0.01029793
000200 55 09 0a 3c 16 26 58 bc 6b fb f5 bc bc 3c 3b 3c
       0.0084250765 -0.013192674 -0.030027112 0.011428054
000210 da 7e 36 bd 84 b3 e0 ba b0 31 5e bd df 72 10 bc
       -0.04455457 -0.0017143344 -0.054246604 -0.00881645
000220 cc 21 ef 3c 91 9c 92 bc 7c 74 15 3d b4 94 cc 3c
       0.02919092 -0.017896922 0.03648804 0.02497325
000230 0f 00 1a bd 89 74 0f bd 2e e2 45 bd 03 8e 2e bc
       -0.037597712 -0.035023246 -0.048311405 -0.010653975
000240 d8 15 73 bd 1c 93 fe 3c 98 ba 61 bd 47 11 05 bd
       -0.059347004 0.031076007 -0.05510959 -0.03248718
000250 04 74 e4 bc 7d 61 1f bb bd c3 13 3c aa eb 05 3d
       -0.027887352 -0.0024319582 0.009018836 0.03269545
000260 ce 42 66 3d 1a f2 aa bc 83 cf da bb 83 db ab 3c
       0.056216054 -0.020867396 -0.0066775694 0.020978695
000270 3a 50 ee bc 1f 58 52 bd c6 4f a5 bc 76 93 03 bd
       -0.02909099 -0.05135357 -0.02017964 -0.03212305
000280 34 56 84 bc 1c a0 e3 bc 11 47 6e bc 9f 4a 9f 3c
       -0.016154386 -0.027786307 -0.014543311 0.019444762
000290 a8 8e 6c bc 70 5e 2c bd df 87 51 bd b0 b7 ca bc
       -0.014438309 -0.04208225 -0.051154967 -0.024745792
0002a0 c7 e4 16 3d 37 43 8a bd 00 77 45 bd df 15 4d bd
       0.036839273 -0.067511015 -0.04820919 -0.050069686
0002b0 fd a5 d1 bc 41 f4 42 3d 66 31 1a 3d a1 4b 0a bd
       -0.025591845 0.04759622 0.037644766 -0.03376353
0002c0 1e e9 89 bc 35 3e d9 3c 54 a7 62 bd bc df 50 bd
       -0.016834792 0.02651892 -0.055335358 -0.05099462
0002d0 6e 3d eb 3b 97 e3 63 bd 66 f7 0b bd 1e de 91 bb
       0.007178954 -0.05563697 -0.034171484 -0.0044515273
0002e0 f6 48 2d bd 0e 17 e4 3c 74 3e 2e 3d 79 f2 59 3d
       -0.04230591 0.027843025 0.04254003 0.053209756
0002f0 b8 4b 38 3d 11 16 21 3d 9c 38 67 3d 8c 92 d3 bc
       0.044994086 0.039327685 0.05645047 -0.025826715
000300 dd 30 86 bc 3d 48 79 bd 76 b0 f2 bc 5f 01 2a 3d
       -0.016380722 -0.060859907 -0.029625159 0.041505214
000310 87 b3 de bb e1 97 2e 3b 19 cf ec 3c ef 56 28 bd
       -0.0067963037 0.002664082 0.028907346 -0.04109853
000320 c8 5e 7c 3c 06 44 cf bc 74 af e8 bc 00 6f 77 3d
       0.015403457 -0.02530099 -0.028403975 0.060408592
000330 40 e8 ef ba 2c 6a dc bc 90 30 7d bc 85 c0 36 3d
       -0.0018303469 -0.026906095 -0.015453473 0.044617195
000340 e5 38 f7 3c e0 f5 75 3c 00 fd 62 3d f0 43 02 bc
       0.030178497 0.015012234 0.05541706 -0.007950768
000350 dc a7 50 bd 88 6a 15 bd 89 85 fb bc 7f 06 ef b9
       -0.050941333 -0.03647855 -0.030703323 -0.00045590472
000360 5c 61 37 bd 17 f1 47 bd 00 14 3c bd 7d 8a 26 bb
       -0.044770584 -0.048813906 -0.04591751 -0.0025412135
000370 1e c8 88 bd d8 58 21 bd 27 6e dd bb eb 7e 3e 3c
       -0.06678794 -0.03939137 -0.006757516 0.011626939
000380 96 98 27 b9 84 de b8 3c 86 a9 9f 3a 18 d8 1f bc
       -0.00015983204 0.022567041 0.0012181259 -0.009756111
000390 aa b4 60 3d cf da 0a 3c bd 5b e1 bb 96 57 06 bd
       0.054859795 0.00847502 -0.006877391 -0.032798372
0003a0 2e cd 09 3d 1c e5 89 bc a6 7e 17 bc 54 9a d7 bc
       0.03364294 -0.01683288 -0.009246504 -0.026318707
0003b0 76 85 24 bd 8d 9d 5a bd fa 31 44 bd b1 f6 1e 3d
       -0.04016634 -0.05337291 -0.047899224 0.038809482
0003c0 14 4f 88 bd 15 4a 67 bd f7 d0 5d 3d 72 e7 61 3d
       -0.06655708 -0.056467135 0.054154363 0.055152364
0003d0 13 b7 99 3a f0 9a f7 3a de 98 1b 3d e0 33 94 bb
       0.0011727534 0.001889078 0.037987582 -0.0045227855
0003e0 5d d8 47 3d 68 5d 8a bd b2 ed 21 3d d6 07 54 bc
       0.048790324 -0.06756097 0.039533325 -0.012941321
0003f0 84 db 31 3d bf 5f 86 bc 7b 14 79 bd 22 d4 3a 3d
       0.043422237 -0.016403077 -0.060810547 0.045612462

network.2.bias f4 [256]
000000 e8 1e 63 3d 13 e3 a5 3d 69 2d 4f bc 2e 5c 4f bc
       0.055449396 0.080999516 -0.012645104 -0.012656255
000010 6d 38 37 bd 90 a1 dd 3d dc a5 6c 3c a3 04 45 3d
       -0.044731546 0.10821831 0.014443841 0.048100125
000020 74 02 bf 3c bb f6 9e bd 32 b0 be 3d 27 89 b9 bd
       0.0233166 -0.07761904 0.0931095 -0.09059363
000030 ea db 14 3d 62 22 e9 3c 03 52 85 3c a0 68 98 3d
       0.03634254 0.028458778 0.016274458 0.07441831
000040 73 9c 5d bd f8 43 ac bb 82 84 69 3d a2 30 f1 bc
       -0.05410428 -0.005257126 0.057011135 -0.029442135
000050 a0 64 9a 3c 41 4d 23 3d da 12 ea 3d ea 95 6c bd
       0.01884681 0.039868597 0.11429377 -0.057760157
000060 12 80 60 bc 0b 22 c5 3c 15 a2 76 bb 2c c1 8b 3d
       -0.013702409 0.024064085 -0.003763323 0.06823954
000070 0e e5 4e bc 09 46 f8 3c 1f f6 6d bc ab f9 61 3d
       -0.012627853 0.030306833 -0.014524012 0.055169743
000080 b0 8b 88 bc b4 a8 bb 3d 30 e1 8b bd d8 a4 32 bd
       -0.01666817 0.09163037 -0.068300605 -0.04361424
000090 30 ff c4 3d 01 95 59 3c 18 61 47 3d 84 e8 8e 3d
       0.09618986 0.013280154 0.04867658 0.069779426
0000a0 71 5c 15 3e f2 85 97 3d 98 58 df 3c 5d 2a 23 3d
       0.14586045 0.07398595 0.027263924 0.039835323
0000b0 ac b7 3c 3d fd 51 18 3e 89 7e 3c bd ed 01 77 3d
       0.0460736 0.14875026 -0.04601911 0.06030457
0000c0 09 c6 a0 bd 00 5a 00 3e 9e c8 f0 3c 8c 39 71 3d
       -0.07850272 0.12534332 0.029392537 0.05889277
0000d0 3c ab 79 3d 56 d8 17 bb 70 85 29 bd ed d7 70 3d
       0.060954317 -0.0023169718 -0.04138702 0.058799673
0000e0 60 42 16 3d 5d cf d2 3d 4f c1 0c 3d 1f db 73 3d
       0.036684394 0.10293458 0.03436404 0.059535142
0000f0 34 b4 e1 3d 51 64 03 3e 3b d3 be bb 02 6f ce 3d
       0.11020699 0.12831236 -0.0058235205 0.10079767
000100 d7 99 83 bc 76 bb c1 3d f3 fe 2c 3e 46 cf af 3d
       -0.016064567 0.094595835 0.1689413 0.08584456
000110 7d ff 38 3d f4 bb 06 bd 93 a5 b5 3c 91 91 8b 3d
       0.045165528 -0.03289409 0.022173679 0.06814874
000120 10 64 27 bd 3b 33 85 3b 11 c9 37 3d 7b 25 51 bc
       -0.04086691 0.004064945 0.044869486 -0.012765284
000130 8e 7c f9 3b 34 5b b2 3c 33 f8 c4 3d 45 7f df 3c
       0.007613725 0.021772005 0.09617653 0.027282367
000140 9f 2f 92 3d bf e1 52 3d a2 46 22 bd fa 9f 88 3d
       0.07137989 0.05148482 -0.039618142 0.06671138
000150 45 d7 e3 bc df 0e 97 3b 2c 4f f0 3d 83 c6 88 bd
       -0.02781261 0.004609927 0.11733851 -0.06678488
000160 14 e3 14 3d 4c d0 b3 bc 1d 89 37 bd 2e a2 4e bd
       0.03634937 -0.02194991 -0.044808496 -0.050447635
000170 c5 70 97 bc bb d7 aa 3c b3 68 1a 3b 6a 99 8c bd
       -0.01848639 0.020854821 0.002356094 -0.06865199
000180 b5 b8 ea bc d1 b0 54 3c c4 c6 91 bc d2 18 92 bc
       -0.028652528 0.012981609 -0.017794974 -0.0178341
000190 b3 2c 46 bd 39 a6 39 3e 42 af 6b bd 2c e0 27 3e
       -0.048382472 0.18129815 -0.057540186 0.16394109
0001a0 ef 14 6f bd d2 ad bd 3c 09 c4 19 3d 17 8e 4b bd
       -0.058369573 0.023154173 0.03754047 -0.049696054
0001b0 6c c8 81 3d 38 53 92 bd d3 96 34 bd e3 4f b9 bc
       0.063370556 -0.07144779 -0.04408915 -0.0226211
0001c0 1f 3a 11 bd 27 d2 a7 3d e9 51 13 3e be 89 f7 bc
       -0.03545582 0.0819438 0.14386715 -0.030217048
0001d0 eb 9a b4 3d 4c d6 dd 3c 49 a4 1e 3e 30 b9 ab 3d
       0.08818611 0.027079724 0.15492357 0.08384931
0001e0 6e 71 b4 3d aa 0f 97 3c 15 89 eb bd f0 12 38 bd
       0.088106975 0.018440086 -0.11500756 -0.044939935
0001f0 eb 7b 23 3d a9 63 35 bd 98 5d 1b 3e 3c e7 54 bd
       0.0399131 -0.044284496 0.15172422 -0.051978335
000200 12 45 52 bc 36 a5 8a bc 76 1d 8f 3b 1d 42 a6 3d
       -0.01283385 -0.016924482 0.0043675257 0.08118079
000210 78 cf 99 bd 62 9b 3b bc 3e 03 18 ba 25 3b 30 bd
       -0.07510275 -0.01145062 -0.0005798823 -0.043025155
000220 d1 64 43 ba 28 75 c0 3c 06 89 8e 3d 6e c7 26 3d
       -0.00074536825 0.023493364 0.06959729 0.040717535
000230 7a ac 37 bd 78 e7 74 3d db 5f b8 3b dc 26 65 bd
       -0.04484222 0.05979106 0.0056266612 -0.055945262
000240 e5 73 be bd 58 a5 2f bd 45 3b a6 bb 7e 5e f3 bb
       -0.09299449 -0.042882293 -0.0050729834 -0.007427036
000250 f2 ba 2b bc 1c 48 58 bd f8 61 f7 3d 1d 17 0d bd
       -0.010481583 -0.052803144 0.12079233 -0.03444587
000260 ff a8 d5 bb 1d 09 d4 bb 8f 8a c5 3d 2c 84 51 bd
       -0.00652039 -0.006470813 0.096455686 -0.05115144
000270 99 fb 0f 3c 74 6b 24 bd 13 78 02 3c fd 94 40 3c
       0.008788013 -0.040141538 0.007963198 0.011754272
000280 94 5e 8d bc 5f 77 7f bd f5 70 a9 3d 04 46 42 bd
       -0.017257012 -0.0623697 0.08273498 -0.047430053
000290 6f 03 1a 3e 74 24 eb 3b 5f 99 0b 3e 00 64 e1 3c
       0.15040372 0.0071759764 0.13632725 0.027513504
0002a0 b3 f9 5d 3d 90 35 e7 bc 75 35 02 3e 77 ef c6 3c
       0.05419321 -0.028223783 0.12715705 0.024284108
0002b0 94 e6 25 bd 70 1a 3e 3a 3d 0e dd 3d 72 3e de 3c
       -0.0405031 0.00072518643 0.10793731 0.027129386
0002c0 58 5c 09 3d 2f a7 1c 3c 8b 04 ea bb 94 68 37 bc
       0.03353533 0.009561344 -0.007141655 -0.011194367
0002d0 a9 a1 95 bb ff 12 b9 bc 66 89 e3 3a 85 fc de 3c
       -0.0045663905 -0.022592066 0.0017359674 0.02722002
0002e0 2a 67 f4 3d a6 b0 74 bd 3c 3f c7 3d 10 a1 58 3a
       0.119337395 -0.059738778 0.09728858 0.0008263746
0002f0 89 27 81 bc c8 5a 22 3d 19 1d 21 bd b0 8b bd 3d
       -0.015765922 0.039637357 -0.03933439 0.09255159
000300 bd 34 01 3d e2 53 d5 bc de e5 57 bd e4 b9 2e 3d
       0.031544436 -0.026040975 -0.052709453 0.042657748
000310 a9 cb e1 bb b6 a4 93 bd d0 76 15 bd 48 55 fc 3d
       -0.0068907333 -0.072091505 -0.03649026 0.123209536
000320 7f 0b 74 bd 5d bc aa 3d e1 c2 c5 3d 94 4c 4d 3d
       -0.059581276 0.08336709 0.09656311 0.05012186
000330 a4 36 e9 3c f6 9d 9a 3d 78 a4 01 bc 62 2d 35 39
       0.028468437 0.0754966 -0.007912748 0.00017278412
000340 be a3 e2 3d fc 3c ca bc e7 11 fc 3c ce c4 28 bd
       0.110663876 -0.024687283 0.030770255 -0.041203313
000350 3e a6 62 3d 7c a0 10 3e ef 86 6c bd 72 1a 38 3d
       0.055334322 0.1412372 -0.05774587 0.044947095
000360 c1 bf 0b bd aa 31 55 3d 40 17 27 bd 76 7a 49 3d
       -0.034118418 0.052049316 -0.040793657 0.049189053
000370 03 aa 85 bd ca f7 26 3d 41 b7 60 bc f6 0b 6d bc
       -0.06526568 0.040763654 -0.013715566 -0.014468184
000380 a1 e8 03 3d 8d 69 c7 bb c2 de f2 3c ba 39 0c 3d
       0.032204274 -0.0060855807 0.029647235 0.03423474
000390 6f 7e d5 3d 14 cf f0 3d 38 6e fa 3c 1f 7e be 3d
       0.10424506 0.11758247 0.030570135 0.093013994
0003a0 24 66 2d bd f8 92 33 bd ff 01 3b bd fd af 00 bd
       -0.042333737 -0.043841332 -0.0456562 -0.031417836
0003b0 88 65 55 3c af eb db 3d 4f 4b 87 bc ad 9b 96 3d
       0.013024695 0.107383125 -0.016515402 0.073539115
0003c0 04 05 da 3a 9d 29 86 bd 37 0b 82 bd b5 56 73 bb
       0.0016633575 -0.06550906 -0.06349795 -0.003713054
0003d0 82 d2 6a 3c 45 96 83 3d a8 df a3 3c e9 59 5d 3c
       0.014332416 0.06425146 0.020004109 0.013510206
0003e0 60 57 43 3c b4 b2 b7 bd e1 00 2a 3d 13 15 20 bc
       0.011922687 -0.08969632 0.041504744 -0.0097706495
0003f0 05 c7 f2 3a c1 7e f9 3d 67 5e 14 3e 48 b5 fb 3d
       0.0018522447 0.121823795 0.14489137 0.12290436

network.4.weight f4 [3, 256]
000000 18 84 1c bc 98 dc 00 3e ed 4a 98 bc 4c 39 93 ba
       -0.009552978 0.1258415 -0.018590415 -0.0011232286
000010 93 ab 0e 3e 1d 8e 3b 3e f8 85 24 be e9 91 82 3b
       0.13932638 0.1831593 -0.1606673 0.003984679
000020 df 6d 87 bd 07 86 5f bc 64 e2 0b 3e a4 16 39 3c
       -0.06612753 -0.013642794 0.1366058 0.011296902
000030 e6 48 35 bb 57 49 11 bd 00 0c 4b bd f1 58 38 3e
       -0.002766186 -0.035470333 -0.04957199 0.18002678
000040 e1 bd a6 ba 1d 2d cd bc dd 1f 39 bd af 48 c1 bc
       -0.0012721383 -0.025045926 -0.045196403 -0.023594229
000050 34 bf 15 3e da be 54 be d4 2c 36 3e 33 c0 fd 3b
       0.1462372 -0.20775929 0.17790538 0.007743859
000060 6e ff ef 3b cc c6 f4 bc 64 10 0e bd 4b ee 04 3e
       0.0073241508 -0.02987995 -0.0346836 0.12981527
000070 84 a5 17 3d 72 dd 41 3d d2 9c 09 bc 51 f7 51 bd
       0.037023082 0.047330327 -0.008399205 -0.05126125
000080 bd fa 2c 3c 51 3c a8 3d c8 6b 02 3d b7 ca 66 3c
       0.010557828 0.082146294 0.03184107 0.014086417
000090 d4 11 22 3e 18 d2 21 bd 50 f1 04 bc c0 f1 8f bd
       0.15827113 -0.039507 -0.008114174 -0.07028532
0000a0 3a ba 1a 3e 2b 4b 3f bd 2e a0 64 bd 40 6d 31 bb
       0.15110102 -0.046702545 -0.05581682 -0.0027073175
0000b0 76 4a d2 3d d0 38 04 3e 8a 20 ab 3c 5e 2d eb 3d
       0.102681085 0.12912297 0.02088954 0.114832625
0000c0 72 d3 fa 3b 86 6c 28 3e 41 bc b4 bc 88 8d 1f 3e
       0.007654601 0.16447648 -0.022062423 0.15581334
0000d0 43 c1 dc bc 11 41 41 bd 4b 25 8c be 71 8f 1f 3e
       -0.026947623 -0.047181193 -0.27372202 0.15582062
0000e0 f8 c6 64 3a f9 11 4f 3e 97 52 a1 bd 2a a5 0b bd
       0.00087271584 0.202217 -0.07877081 -0.03409306
0000f0 a5 fa 0c 3e 16 51 11 3e b1 df a6 bd ea 3d e2 3d
       0.13767488 0.14191088 -0.081481345 0.110469654
000100 ae 23 f7 3c 1c 10 12 3e f7 70 1a 3e 0c 08 4a 3e
       0.03016838 0.14263958 0.15082155 0.19729632
000110 7e c2 e2 bc bc 89 34 bc 4e 97 88 3b 3b 2b 93 bc
       -0.027680632 -0.011019167 0.0041684275 -0.01796495
000120 8d a4 aa bb b0 e4 c2 be a9 d4 0a bd e8 ef 80 3c
       -0.0052076043 -0.380651 -0.033894215 0.015739396
000130 bd c4 e3 3c c3 f6 b4 bd fc 1d 8c bd f4 51 04 3d
       0.027803773 -0.088361286 -0.068416566 0.03230472
000140 d7 52 09 3e d3 ee 99 bd 96 5c a6 bd fb 04 0d 3e
       0.13410507 -0.07516255 -0.08123128 0.13771431
000150 80 57 25 bc f8 ce 2a bc 6f b2 18 3e 2f 28 d8 bc
       -0.010091662 -0.010425322 0.14911817 -0.026386349
000160 83 80 6d bd dd dc fd 3c b6 f9 1b 3c d5 5a 80 3c
       -0.057983886 0.030989105 0.009519985 0.015668312
000170 05 8e c1 be 22 85 12 bd b1 74 06 3d 34 6c 32 3d
       -0.37803665 -0.035771497 0.03282613 0.04356022
000180 58 2a 80 3d 8b 69 17 3e ca 14 cf bd 10 94 8e 3b
       0.062580764 0.14786355 -0.10111387 0.0043511465
000190 02 5c 6b 3d 01 23 2c 3e 06 90 c0 bb c2 f5 fb 3d
       0.057460792 0.16810228 -0.005876544 0.12302734
0001a0 2c b3 37 3b 70 7a 83 bc ab 23 4d bd ce 87 41 be
       0.0028030379 -0.016049594 -0.050082844 -0.18899462
0001b0 df 60 f8 3d a1 03 bb 3a 96 20 f0 bb 58 c9 d4 bd
       0.12127852 0.0014268049 -0.0073281033 -0.10389966
0001c0 eb 4e 92 3a cd 02 d0 3c 17 04 cf 3d 0b b4 6d 3d
       0.0011162435 0.02539196 0.10108202 0.05803303
0001d0 9f 52 1e bd e5 3e 2a 3e 09 8e af 3d d8 81 f2 3d
       -0.038653012 0.16625555 0.08572013 0.11841172
0001e0 e0 f8 fc 3d 86 5f ea bc bf 30 7c bc 1e 93 43 3e
       0.12352157 -0.028610002 -0.015392481 0.1909909
0001f0 4e 93 d3 be a0 af 0a be 18 f3 2d 3e 08 0a b7 3b
       -0.41323322 -0.13543558 0.16987264 0.0055859126
000200 25 e9 ac bc f3 6d d8 3c cc f5 17 bc 6a 61 e5 3d
       -0.021107266 0.026419615 -0.009274911 0.11200221
000210 66 20 8b 3c c1 3f 12 bd 0b a8 d4 3b f3 db 7d bd
       0.016983222 -0.03570533 0.006489759 -0.061977338
000220 de 17 be bb 77 13 58 bd 22 2a 0b 3e d5 9f 4b be
       -0.005801185 -0.052752938 0.13590291 -0.1988519
000230 58 0f 4b 3d 62 fa 50 bc c9 74 67 bc 5a 19 81 bc
       0.04957518 -0.012755008 -0.014126965 -0.015759159
000240 5b fc 34 bc b7 64 c0 3c 4f 7d 4c bc 79 3e a0 3b
       -0.011046494 0.023485525 -0.012481048 0.00489026
000250 c2 64 4f 3c be 0b b2 3d a8 72 33 3e 30 c0 36 3b
       0.0126583 0.08693646 0.17524207 0.0027885549
000260 59 f8 02 3e 6d 1f 8b 3d d6 6f 04 3e cb ee d9 bc
       0.1279005 0.06793103 0.12933287 -0.026603123
000270 ba 65 4f bd 8e 86 6a bd a5 71 b1 bc 7e b5 67 3d
       -0.050634123 -0.057257228 -0.021660635 0.05656957
000280 45 73 8b 3d 00 40 1a b7 d6 02 cc 3d 19 96 33 3c
       0.06809095 -9.1940165e-06 0.099614784 0.010961079
000290 29 e3 f3 3d 02 f8 6a be 2a 84 0d 3e 81 58 23 3c
       0.11908562 -0.2294617 0.13819948 0.009969831
0002a0 1f d8 2b 3e e8 96 1c 3d 88 7d 00 3e ce f8 ae 3c
       0.16781662 0.038229853 0.12547886 0.021358874
0002b0 4d e3 e4 3c 09 10 bb 3c 65 07 07 3e 17 2b c8 ba
       0.027940417 0.022834795 0.13186415 -0.0015271631
0002c0 9d 90 9b bd 26 0a dc 3d fa fb d0 be f1 1e 0d bd
       -0.07595942 0.10744123 -0.40817243 -0.034453336
0002d0 9b 40 17 be 15 b7 fc bc 91 27 ca 3b b1 5c e5 3d
       -0.14770739 -0.030849019 0.0061692675 0.1119932
0002e0 bf 92 94 3d 7e 86 22 be a0 2c e7 3d 1a 37 a6 be
       0.07254552 -0.15871617 0.112878084 -0.32463914
0002f0 17 cf 05 bd 74 aa 97 bd d9 15 e4 3d 4c 2a 07 3e
       -0.0326682 -0.07405558 0.111369796 0.13199729
000300 e0 05 22 bd 3c 96 37 bd df 97 86 3b 7c e4 83 3a
       -0.039556384 -0.04482101 0.00410746 0.00100626
000310 63 3c 36 be d6 44 2e bd 5f 41 71 bd 9e 67 39 3e
       -0.17796473 -0.042546116 -0.058900233 0.18105933
000320 9c be de bc 8a 43 fe 3d 46 c9 e1 3d 49 35 f6 bc
       -0.027190499 0.12415226 0.11024718 -0.030054705
000330 72 bd 54 ba 3c 10 81 3d 48 14 3a be d4 ec 10 3d
       -0.0008115388 0.063019246 -0.18171799 0.035382107
000340 ca 1c 74 3b 0e 6a 8e 3b fc aa be bc 48 2e 09 bd
       0.0037248605 0.004346139 -0.023274891 -0.033491403
000350 fb d1 f8 bb 3f 8d 3c 3e 6f 11 40 3d d8 ea 1b 3e
       -0.007593391 0.18413256 0.046891626 0.15226305
000360 37 f6 98 3c e7 a5 61 bb 8b 2b 16 3d 77 44 cd bc
       0.018672092 -0.003443116 0.03666262 -0.02505706
000370 05 90 1a bc 25 49 fe 3d 9d 64 6e bc 59 72 0e 3d
       -0.009433751 0.12416295 -0.014550355 0.03477702
000380 72 3d ae bc 96 f2 bf bc ae 7c 53 bc 36 98 5a 3b
       -0.021269534 -0.023431104 -0.012908144 0.0033354885
000390 eb 78 e3 3d 53 1f 33 bd cc 8c 57 3d a9 77 1a 3e
       0.11107048 -0.043731045 0.05262451 0.15084709
0003a0 f5 85 13 bd 41 67 2b 3d 50 5b 16 bd 7a 36 12 bd
       -0.036016423 0.041846517 -0.036708176 -0.035696484
0003b0 97 be 18 3a b7 2f e4 3d e5 c0 ae 3c ce 2f 2d 3e
       0.000582674 0.111419134 0.021332214 0.16912767
0003c0 f9 21 d6 bc e1 ec 9f 3b 71 a7 99 bc 72 4b 14 3e
       -0.026139246 0.004880533 -0.0187566 0.14481905
0003d0 b2 a6 b7 be e3 59 26 3e 4c 1c 06 bd 07 c2 db bc
       -0.35869366 0.16245227 -0.03274183 -0.026825918
0003e0 77 2c 99 be c0 26 01 bd 67 c0 1e bd 2d c0 b5 3b
       -0.29916736 -0.031531096 -0.038757708 0.005546591
0003f0 24 ff 35 bc 6c 7b 2b 3e e3 f2 e3 3d b9 3c 05 3e
       -0.011108194 0.167463 0.11130311 0.13011445

network.4.bias f4 [3]
000000 49 16 b5 3d 5d ea fe 3c 2f b5 89 3b
       0.08842141 0.031117612 0.004202507
