20250331/final_model.pth (torch, 283312 bytes, 6 tensors)

network.0.weight f4 [256, 13]
00000000: 640a 923e bf05 c43e 8902 3d3e 58dc 8b3d
00000010: c051 f8bd 3b07 94bd f646 983d 4dcc 953d
00000020: 6166 07be a57e 5e3d 414a 79bd 8434 9f3c
00000030: ace3 74be 4666 c13e c208 5bbe 1c44 a6bd
00000040: 8990 9bbd b359 0cbd 6b09 d5bd 8e98 3f3e
00000050: 282b 0dbd 1e40 43be a906 92be 7bd9 86be
00000060: 4699 333e 1352 d3be 2b68 813e a569 3e3d
00000070: da1c e1bd 5721 debe 7e90 6cbc d933 bdbd
00000080: b07d 5ebe 2982 a5be 8658 8abd b955 a8be
00000090: ebd0 3f3e cd35 573e 0bf1 a7be 7486 abbd
000000a0: 9178 d33e 3d5d 8fbe 406a ef3d 8208 933e
000000b0: 16ac 0cbd 0064 c5bd ba66 773e 2b57 a63e
000000c0: b374 5ebd c597 63be 4349 053d 2d81 593e
000000d0: 6f1c abbd 07b7 943e f917 1c3e 018b 623e
000000e0: 69a9 3cbd 7311 173e d4c5 c3be 31b2 03be
000000f0: 5fbb 3c3e 188f 833d 4a55 88be 32d8 8d3c
00000100: ece2 9dbe 17e1 03bd 8ae7 243e 8ac9 883e
00000110: 309b 6dbe adfd b5bd a054 9ebe 7c96 e83d
00000120: 807d 9cbe 2c78 95be 8de8 c9be 2220 3d3e
00000130: 086c 1a3e a8e9 20bf 1d32 c23e 342e e73e
00000140: b23d b13e 1c48 973c f1cd 0a3e d685 90be
00000150: 9c54 a2bd b8ba 573e baeb 7cbd 471e 57be
00000160: 9edd 803c b8d3 043f 0975 bf3c d178 e73e
00000170: bcf7 cfbe 0c1a 023f 9969 49ba c4f6 823d
00000180: cf9c 143e 6e5d 593e daad cf3d 2dfb babd
00000190: b612 80bd 69d9 d0bc 270f 8abe 83ab 06be
000001a0: 1a7d ecbd 3cc3 043e d664 2e3e 73f9 1a3e
000001b0: af9e 58bd 7c1e f8be 70c9 3c3e 3e34 a9b9
000001c0: 7e75 52bc bf15 4fbe 5ec5 ef3d 134b f2be
000001d0: d81e 8fbe 8f0c c43e b580 7f3e ecc6 c93e
000001e0: 7a37 a1bc ea0b e3bd da7f 82be 03aa 1cbd
000001f0: d943 c0bd 3849 0d3e e72f 02be b636 9cbd
00000200: 2358 cd3d 05c3 333e 0e07 be3e 6445 b23e
00000210: ca47 3fbe 185a 73ba d754 3abe 208b f5be
00000220: 4de4 0cbd 9cef 40be d3a7 213e 2f6e 893d
00000230: cefe 5abe 016f 863e 7667 7bbe 3b2e 8e3e
00000240: b450 de3e ea0c c43e 263f 78be 3c06 59be
00000250: d725 e63d 1b39 80be 1006 953d 8c5c 64be
00000260: f029 0f3e b44f 533c ed75 c73e b229 013e
00000270: 997b a9bd 9af5 00bf 1747 093f d2a1 02be
00000280: 63c5 363e 0e03 0dbd a066 2fbe f336 88bc
00000290: 46a8 b03c c3f5 413e 9d03 2c3e acf6 17bd
000002a0: 3802 b03e 2a1f 67be c650 02be 543b c9be
000002b0: f934 fc3c 8933 813e 2fb7 cf3d 84d2 4d3d
000002c0: ed5b 793e 41f9 093e f1c3 683e 78a6 fd3d
000002d0: beb2 9bbe 0645 5abe 1315 a13c 50b9 703d
000002e0: 2891 b73d 698e 8b3e 93f4 9bbe 1a4e 9dbe
000002f0: 5034 15be f2b9 613e 18b8 c2be c43d c2be
00000300: 2eaa 65bd 70b1 e7bd af26 23bf 610f aebe
00000310: 0dc8 a7be f05e 80be dd41 b33e a9c6 14be
00000320: a690 733e 554c 34be cb11 893e f369 a5bd
00000330: 1c5f 64bd 81af e0bd 40f2 0cbe 0b99 a0bd
00000340: f33d b63e 22a5 3d3d a235 443e dbb4 3abe
00000350: e379 9ebd 4a6c 98bd 264e 653e 59c8 0c3e
00000360: b5bf 80be f584 17be 59d5 dcbe e923 293e
00000370: e2c8 6ebe c7f7 a63e 6041 6cbe e95d 8d3e
00000380: 290a 553e c4da 603e 8d39 723d eadd 253e
00000390: 49dd 88be f47b 1ebb 8309 29bd 6b6d ecbc
000003a0: 2d41 8dbe 0309 71be 4bfb 6c3d 22a0 113e
000003b0: 8223 63be e64d 2f3e 5147 0fbe 164e 153e
000003c0: fc22 94be 36c4 ed3c 24bb 74be 30ed 8cbe
000003d0: 9e77 a23d e2ff 9cbe a915 10bf ca35 f9bd
000003e0: 442b 1ebe f9f3 1abc aefc ccbd 70fc 903e
000003f0: 6756 9d3e c4cf b63e f972 58be cc1e f6be
0.28523552 0.38285634 0.18457998 0.068291366 -0.121249676 -0.072279416 0.0743541 0.07314358
-0.13222648 0.054319996 -0.06086183 0.019434221 -0.23914975 0.3777334 -0.2139006 -0.081184596
-0.07595927 -0.03426523 -0.10402187 0.18710539 -0.034464985 -0.19067428 -0.28520706 -0.263378
0.17538938 -0.41273555 0.25274786 0.04648747 -0.10991831 -0.4338481 -0.0144387465 -0.09238405
-0.21727633 -0.32325867 -0.06755166 -0.328779 0.1873204 0.21016617 -0.3280109 -0.08375254
0.41302922 -0.28000823 0.116901875 0.28717428 -0.0343438 -0.09638214 0.24160281 0.3248838
-0.05431051 -0.22225864 0.03254057 0.21240683 -0.08355033 0.2904589 0.1524352 0.22123338
-0.04606 0.1475275 -0.38236868 -0.12860943 0.18430851 0.06423777 -0.2662757 0.017315004
-0.3083719 -0.032197084 0.1610395 0.26716262 -0.2320373 -0.088862754 -0.3092394 0.113568276
-0.305645 -0.29193246 -0.39435235 0.18469289 0.15080273 -0.6285653 0.37928858 0.45152438
0.34617382 0.018467002 0.13555123 -0.2822711 -0.07926294 0.21067321 -0.061748244 -0.21007644
0.015730675 0.5188556 0.023371236 0.45209363 -0.40618694 0.50820994 -0.0007683277 0.06394723
0.14512943 0.21227047 0.101405814 -0.09129939 -0.06253569 -0.025494294 -0.26964685 -0.13151364
-0.11547299 0.12965101 0.17030653 0.1513422 -0.052885707 -0.48460758 0.18436217 -0.00032273115
-0.012845395 -0.20223139 0.11707567 -0.47322902 -0.2795322 0.3829083 0.24951442 0.39409578
-0.019679774 -0.11086257 -0.25488168 -0.038248073 -0.09387941 0.13797462 -0.12713586 -0.07627623
0.10026576 0.17554863 0.37114757 0.34818566 -0.18679729 -0.00092831394 -0.18196426 -0.47957706
-0.034397412 -0.18841404 0.15786676 0.06710469 -0.21386263 0.26256564 -0.24551186 0.27769646
0.43420947 0.38291103 -0.24242839 -0.21193784 0.11237686 -0.25043568 0.07276547 -0.22300929
0.13980842 0.012897421 0.38957158 0.12613562 -0.082755275 -0.5037476 0.536241 -0.12757042
0.17848735 -0.03442674 -0.17128992 -0.016627764 0.021564614 0.18941407 0.16798253 -0.03710048
0.34376693 -0.22570482 -0.12726125 -0.39303076 0.030786978 0.2523463 0.101423614 0.05024959
0.24351473 0.13473989 0.22730996 0.12385267 -0.30409807 -0.21315393 0.01966337 0.058770478
0.08963233 0.27257088 -0.30460033 -0.3072365 -0.14570737 0.22043589 -0.38031077 -0.37937748
-0.0560705 -0.113131404 -0.637309 -0.33996108 -0.32769814 -0.25072432 0.35011187 -0.14528908
0.23785648 -0.17607243 0.26771387 -0.08076849 -0.055754766 -0.10970975 -0.13764286 -0.07841691
0.35594139 0.04630006 0.19161084 -0.18233053 -0.07738092 -0.074425295 0.22393093 0.13748302
-0.2514626 -0.14796813 -0.4313152 0.16517605 -0.23318818 0.32610914 -0.23071814 0.2761071
0.20804657 0.21958452 0.059136916 0.16197935 -0.26731327 -0.0024182769 -0.041268837 -0.028860768
-0.27588788 -0.23538594 0.05785684 0.14221242 -0.22181514 0.1711956 -0.13992049 0.14580569
-0.2893294 0.029024225 -0.23899513 -0.2752471 0.079329714 -0.30663973 -0.5628305 -0.121684626
-0.15446192 -0.009457582 -0.10009132 0.28317595 0.30729982 0.35705388 -0.21137609 -0.4807037

network.0.bias f4 [256]
00000000: 98c2 34be cbf5 bbbd 788b a63d f157 b5bd
00000010: a752 47bc 72fa b23d 4b93 003c fd5f f23d
00000020: 539f 2a3e ee5d 533d 0258 423e a01c 55bd
00000030: 6773 7a3d 8282 153e e6ef 11bd e995 e33d
00000040: 6bd9 57be 6bb5 09be 6437 643e 1bb3 3ebe
00000050: 8fd8 a23c 0909 923e 1a6f 44be e03e ce3d
00000060: f619 ad3e a7db 0d3e 1f39 52be 93bc 543e
00000070: 7ea5 0d3e 0782 a13d 5935 8c3e 51d7 5cbe
00000080: 6c05 803e 4934 483e 415d 89be 4b8c febd
00000090: df45 58be 193f ecbd 279a 603e 8861 eb3e
000000a0: e98c 14bd b45b ba3d c56c 043e 2076 91be
000000b0: 39e8 cbbd dbd4 733e d73e 153e 2b58 413d
000000c0: 397c d03c 183a 23be 1ea4 69bd b46a f53d
000000d0: 1688 443e af55 fc3d 9e7e f93d 09bd 393d
000000e0: 9571 dc3d 23d6 b83a 158f 44be 3879 5cbe
000000f0: 3ace 7dbe 9203 5fbd 42e5 67be 5a2b 4fbe
00000100: 33dd d6bd 8bd3 3ebe d61e 1c3e 7483 a93d
00000110: 2f49 05be 5c7b 323d d749 0c3e adcf 703e
00000120: 7944 ae3b 6761 17be 693a 87be 3e79 693e
00000130: b34c abbe c1ce 843e e3c4 373e 22cb 633e
00000140: f5a5 523d 1fb0 853e dce2 9b3e df63 28bd
00000150: d71b afbd 7a5f 43be 25c4 303d 0323 b23d
00000160: 73b8 5f3e 9eb8 203e 2131 06bd 4a31 8d3e
00000170: d2c2 333e 507e 87be 4728 663e c7ed 053e
00000180: b2bf d9bd 7832 443d 9c57 c3bd 447b 4ebe
00000190: 1b7a ee3b b9ae 2a3e 9b0e cbbd 126a 223d
000001a0: 8d6e a63d 3b98 35be d022 02be f542 90be
000001b0: a965 7f3e 508a 4cbe 43c4 373e c421 c93e
000001c0: 988f ae3e 5443 e73d 9525 713e 8b07 30be
000001d0: 82ec bebd 94da 19be 85fd 873d b7b9 8a3d
000001e0: 9f93 6e3d bd58 8ebe 6189 a7be 084a 623e
000001f0: ae8b cf3d 267c 9ebd fa54 6f3e e05b 2ebd
00000200: 0322 45be ca59 d13d 914a 3b3e 01eb 41be
00000210: d5e5 4a3d b625 5dbd d36b bf3c f2d1 dfbd
00000220: c095 1bbd d34c 113e 3562 263e d855 0b3e
00000230: abb4 85bd 9b5e 27be 0c1b 863d 3c16 8a3e
00000240: 2cd6 18be a1e3 a33c b205 4a3e 62be 5e3e
00000250: ea09 a33d 8837 ecbd 8042 523d 98f8 9abd
00000260: 60c4 943d 2a28 ae3e 189c 12be e94d 1e3e
00000270: 25c4 8e3e 887c 0fbe b935 853d fca1 68be
00000280: 23da 973e df4f 3abe dc08 25be ec64 0ebc
00000290: 0238 f73d 998e a23e 4e45 1ebc dde9 17be
000002a0: f942 bd3d 4579 c43d f71a 80bd 0aba 32be
000002b0: ce7f 2e3e 2068 04be 8fea be3d a66f 16be
000002c0: cef9 1fbe fb28 41be 3432 133e 5ee1 c3bc
000002d0: ffda 76bb fec6 a7bd 8815 153e 97d8 e23d
000002e0: e276 cf3d 12b6 45be e25a f13c 0933 fe3d
000002f0: 48de 34be 076b 453e 32d5 7bbe 084f 56be
00000300: e576 953e 1d9a 8dbd cb02 843d 9bd4 8f3d
00000310: 0348 913e 8c26 823e 9a9c 383d 79c0 373e
00000320: 313f 2ebe 00bd 23be bb78 843d 4c90 3abd
00000330: f47d 82be b72f 65be 0b57 94be 1ce6 0bb9
00000340: 9e97 a43e bc52 bcbd c4f8 e5bd 59a5 3dbd
00000350: 6f2b 943d a39e 4d3d bcd9 163e ed3b 403e
00000360: 16dd 343e 6e03 02be 3469 19bc 0f56 a5bd
00000370: 6ace 0fbe 945a 943e 8845 c63e e290 04bd
00000380: 4b55 b73e e20e 4cbc 434a 5ebb ba31 9c3e
00000390: 15f4 08be 1de9 973e 62b8 27bd 48f4 ccbd
000003a0: 176a 0d3e ee89 94be f7ea 4e3e 4cfe b53b
000003b0: 217d 45be 7877 a63e 6487 8a3e 29a5 953e
000003c0: 467a 9c3e d4c6 dd3d fa6a 613e ddc4 0c3e
000003d0: 2533 973e 1b2a 023e 5e9a 1dbd a065 6cbe
000003e0: c477 043e d162 1dbe e559 433d f162 8abe
000003f0: 28ed 9a3e e1f8 b0bd 1663 733e 2981 17be
-0.17652357 -0.09177741 0.0813207 -0.08854664 -0.012165702 0.08739175 0.007847617 0.118347146
0.1666234 0.05160325 0.18978885 -0.052029252 0.061145213 0.14600566 -0.035629176 0.111125775
-0.21079032 -0.13448112 0.22286755 -0.18623011 0.019878654 0.28522518 -0.19183007 0.10070586
0.3380887 0.13853322 -0.20529602 0.2077506 0.13832662 0.07886129 0.2738445 -0.21566512
0.25004137 0.19551195 -0.2682896 -0.124291025 -0.21120404 -0.115354724 0.21933804 0.45972848
-0.036267195 0.09099522 0.12932117 -0.28410435 -0.09956402 0.23811667 0.14574753 0.047203224
0.025449859 -0.1594013 -0.05704128 0.11983243 0.19192538 0.1232103 0.121823534 0.045346294
0.107638516 0.0014101904 -0.19195206 -0.21530616 -0.247857 -0.054446764 -0.22646049 -0.20231381
-0.10491409 -0.18635385 0.15246138 0.08277026 -0.13016199 0.043574676 0.13700043 0.23516722
0.005318221 -0.1478325 -0.2641175 0.22800156 -0.33456954 0.2593899 0.179462 0.22245458
0.0514278 0.26110932 0.30446517 -0.04111087 -0.08550232 -0.1907939 0.043155808 0.08698084
0.21847706 0.15695426 -0.032761697 0.27576667 0.17554787 -0.26463556 0.22476302 0.13078986
-0.10632266 0.047899693 -0.095381945 -0.2016421 0.0072777397 0.16668214 -0.09914895 0.039651938
0.08126555 -0.17733853 -0.12708592 -0.28176084 0.24941124 -0.19974637 0.17945962 0.39283574
0.34093928 0.11292139 0.23549493 -0.17190377 -0.09322454 -0.15024787 0.06640152 0.067737035
0.05824625 -0.27802077 -0.32722 0.22098553 0.10134064 -0.07738523 0.2337226 -0.042568088
-0.19251256 0.10222204 0.18290164 -0.18937303 0.04953559 -0.053991042 0.023366844 -0.10928716
-0.03798461 0.14189462 0.162484 0.13606966 -0.065286 -0.16344683 0.065481275 0.26970088
-0.1492545 0.020006003 0.19728735 0.21752313 0.07960875 -0.11534029 0.05133295 -0.07566947
0.07264018 0.34015018 -0.14317358 0.15459408 0.2788402 -0.14012349 0.065043874 -0.22718042
0.29658613 -0.18194531 -0.16116661 -0.008691054 0.120712295 0.31749418 -0.009660078 -0.14835306
0.0924129 0.09593443 -0.06255143 -0.17453781 0.17040941 -0.12930346 0.09322082 -0.14691028
-0.15622637 -0.18863289 0.1437462 -0.023911174 -0.0037667153 -0.081922516 0.14558995 0.110764675
0.10130097 -0.19307736 0.029462282 0.12412078 -0.17662919 0.19279109 -0.24593046 -0.20928586
0.29192272 -0.069141604 0.06445845 0.07022973 0.28375253 0.25420034 0.045071222 0.17944516
-0.17016293 -0.15990067 0.0646834 -0.04554777 -0.2548672 -0.22381483 -0.2897266 -0.00013341795
0.32146925 -0.09195468 -0.11229089 -0.046300266 0.07234847 0.050200116 0.14731497 0.1877286
0.17662463 -0.12696621 -0.009363461 -0.08073055 -0.14043584 0.28975356 0.38724923 -0.032364734
0.3580726 -0.01245472 -0.0033918775 0.30506688 -0.1337436 0.2967004 -0.040947326 -0.100075305
0.13810001 -0.29011482 0.2020682 0.005553996 -0.19286014 0.32513022 0.2705642 0.2922757
0.30562037 0.10828939 0.22013465 0.13746972 0.29531208 0.12711374 -0.038477294 -0.23085642
0.12936312 -0.15369727 0.047693152 -0.2702861 0.3025906 -0.0864122 0.23768267 -0.14795364

network.2.weight f4 [256, 256]
00000000: 78f9 27bd 7882 be3c 2068 713b 8f9d c8bc
00000010: cfdf 5cbb 2e73 b0bc 4485 a7bb 879c d6bc
00000020: 076f d03c 0615 d1bc 1210 df3c e947 013d
00000030: 42ec a03a 0d84 4ebd 3496 bb3c 534a 273d
00000040: 5052 b23b b61d 5e3d 8ce4 44bd 2965 453d
00000050: 0801 48bd 010b 5a3d 32d8 c6bc b064 5ebc
00000060: 3570 07bd 59ab 0a3b d0cc f7bb bdd7 5abc
00000070: 1570 283d 9137 a4bc a6ed 2e3c 8e8d 84bd
00000080: 0479 38bd 9959 87bd b9fa c8bb 0af4 e43c
00000090: b079 8fbb 4198 74bc 3160 09bc 3f71 c1bc
000000a0: adb4 143d e4f1 633d c455 17bd 621f 803b
000000b0: e8b7 bebb e98d 9ebc b904 8cbc b7ef 503d
000000c0: 572f dfbb 7031 cebb 4224 7f3d 00e2 27bd
000000d0: 4864 eebb 666f 653d 6a41 43bd 37da b93c
000000e0: 7aab 1d3d 8c42 59bd 4e5a b93c c1c5 55bd
000000f0: e4b9 813b b377 703c 2047 0a3c cbba f5bc
00000100: 9476 dcbc a16e b03c 7114 d4bc 5428 92bc
00000110: 690f 2ebd 2ab6 d3bc 4095 88bc 0673 2abd
00000120: 2988 c0bc be46 3b3d bc63 75bd f7c6 353c
00000130: 84ce e3bc 0b2b 70bc 8291 3c3d 9191 b5bc
00000140: 1b9c edbb 21f8 9cbc 69ec 0bbd dc47 15bd
00000150: d889 37bc 0b24 10bc f9a0 65bd e2e6 68bc
00000160: eb21 9b3b bb5c 8cbc b945 10bd 7660 653d
00000170: 87f7 09bd 7273 303c c9d5 5a3c 1275 953c
00000180: 2ed5 76bd 3b89 ebbc c4b7 f23c 1a78 48bd
00000190: 9ea0 6a3d 8f86 6fba 1970 1b3d 9174 013d
000001a0: c314 073b 6692 5b3d 3f55 10bd 2461 b73c
000001b0: 8840 2b3d 603c 6cbd 1d37 acbc 5f99 d23b
000001c0: 521e 8cbc 17f4 563d 7380 babc fac7 623d
000001d0: 8a94 73bd 6075 82bb 77ac 113d 9c46 7c3b
000001e0: 03db 0e3d 3021 a73b c121 6f3d 2227 4fbb
000001f0: 1e84 b9bb e1e6 15bd 4a2a 8939 a6b8 28bc
00000200: 5509 0a3c 1626 58bc 6bfb f5bc bc3c 3b3c
00000210: da7e 36bd 84b3 e0ba b031 5ebd df72 10bc
00000220: cc21 ef3c 919c 92bc 7c74 153d b494 cc3c
00000230: 0f00 1abd 8974 0fbd 2ee2 45bd 038e 2ebc
00000240: d815 73bd 1c93 fe3c 98ba 61bd 4711 05bd
00000250: 0474 e4bc 7d61 1fbb bdc3 133c aaeb 053d
00000260: ce42 663d 1af2 aabc 83cf dabb 83db ab3c
00000270: 3a50 eebc 1f58 52bd c64f a5bc 7693 03bd
00000280: 3456 84bc 1ca0 e3bc 1147 6ebc 9f4a 9f3c
00000290: a88e 6cbc 705e 2cbd df87 51bd b0b7 cabc
000002a0: c7e4 163d 3743 8abd 0077 45bd df15 4dbd
000002b0: fda5 d1bc 41f4 423d 6631 1a3d a14b 0abd
000002c0: 1ee9 89bc 353e d93c 54a7 62bd bcdf 50bd
000002d0: 6e3d eb3b 97e3 63bd 66f7 0bbd 1ede 91bb
000002e0: f648 2dbd 0e17 e43c 743e 2e3d 79f2 593d
000002f0: b84b 383d 1116 213d 9c38 673d 8c92 d3bc
00000300: dd30 86bc 3d48 79bd 76b0 f2bc 5f01 2a3d
00000310: 87b3 debb e197 2e3b 19cf ec3c ef56 28bd
00000320: c85e 7c3c 0644 cfbc 74af e8bc 006f 773d
00000330: 40e8 efba 2c6a dcbc 9030 7dbc 85c0 363d
00000340: e538 f73c e0f5 753c 00fd 623d f043 02bc
00000350: dca7 50bd 886a 15bd 8985 fbbc 7f06 efb9
00000360: 5c61 37bd 17f1 47bd 0014 3cbd 7d8a 26bb
00000370: 1ec8 88bd d858 21bd 276e ddbb eb7e 3e3c
00000380: 9698 27b9 84de b83c 86a9 9f3a 18d8 1fbc
00000390: aab4 603d cfda 0a3c bd5b e1bb 9657 06bd
000003a0: 2ecd 093d 1ce5 89bc a67e 17bc 549a d7bc
000003b0: 7685 24bd 8d9d 5abd fa31 44bd b1f6 1e3d
000003c0: 144f 88bd 154a 67bd f7d0 5d3d 72e7 613d
000003d0: 13b7 993a f09a f73a de98 1b3d e033 94bb
000003e0: 5dd8 473d 685d 8abd b2ed 213d d607 54bc
000003f0: 84db 313d bf5f 86bc 7b14 79bd 22d4 3a3d
-0.041009396 0.023255572 0.0036835745 -0.024489192 -0.0033702736 -0.021539297 -0.005112322 -0.026197685
0.025443567 -0.02552272 0.027229343 0.03156272 0.0012277442 -0.050418902 0.02289877 0.040842365
0.0054419413 0.054227553 -0.04806952 0.048192177 -0.04882911 0.05323315 -0.024273012 -0.01357381
-0.033065993 0.002115926 -0.0075622573 -0.0133571 0.041122515 -0.020046027 0.010676777 -0.06472312
-0.045037284 -0.06608886 -0.006133404 0.027948398 -0.00437852 -0.014928878 -0.00838475 -0.02361357
0.03630512 0.055650607 -0.036947027 0.003909991 -0.005820263 -0.019354777 -0.017092096 0.05100986
-0.0068110633 -0.0062925145 0.062290438 -0.040987015 -0.007275138 0.05601444 -0.047669806 0.02268706
0.03849361 -0.05304198 0.022626068 -0.052190546 0.0039589275 0.014676976 0.008439809 -0.029996296
-0.026912011 0.021537127 -0.025888653 -0.017841496 -0.042495165 -0.025843699 -0.01667273 -0.0416136
-0.023502426 0.045721762 -0.059909567 0.0110948 -0.027808435 -0.0146587 0.046037205 -0.022164138
-0.0072512752 -0.019161286 -0.034161005 -0.036445484 -0.011202298 -0.008797656 -0.05606172 -0.014215203
0.004734268 -0.017134061 -0.035222743 0.056000195 -0.033683326 0.010769712 0.013356634 0.0182443
-0.060261898 -0.02875196 0.029628642 -0.048942663 0.057282083 -0.0009137177 0.0379487 0.031605307
0.002061174 0.053606413 -0.035237547 0.022385187 0.04180959 -0.057674766 -0.021022374 0.0064269747
-0.017104302 0.052478876 -0.022766327 0.055366494 -0.05946783 -0.0039812773 0.035564866 0.0038494235
0.034876835 0.005100392 0.0583818 -0.0031609018 -0.0056615015 -0.036597136 0.00026162184 -0.01029793
0.0084250765 -0.013192674 -0.030027112 0.011428054 -0.04455457 -0.0017143344 -0.054246604 -0.00881645
0.02919092 -0.017896922 0.03648804 0.02497325 -0.037597712 -0.035023246 -0.048311405 -0.010653975
-0.059347004 0.031076007 -0.05510959 -0.03248718 -0.027887352 -0.0024319582 0.009018836 0.03269545
0.056216054 -0.020867396 -0.0066775694 0.020978695 -0.02909099 -0.05135357 -0.02017964 -0.03212305
-0.016154386 -0.027786307 -0.014543311 0.019444762 -0.014438309 -0.04208225 -0.051154967 -0.024745792
0.036839273 -0.067511015 -0.04820919 -0.050069686 -0.025591845 0.04759622 0.037644766 -0.03376353
-0.016834792 0.02651892 -0.055335358 -0.05099462 0.007178954 -0.05563697 -0.034171484 -0.0044515273
-0.04230591 0.027843025 0.04254003 0.053209756 0.044994086 0.039327685 0.05645047 -0.025826715
-0.016380722 -0.060859907 -0.029625159 0.041505214 -0.0067963037 0.002664082 0.028907346 -0.04109853
0.015403457 -0.02530099 -0.028403975 0.060408592 -0.0018303469 -0.026906095 -0.015453473 0.044617195
0.030178497 0.015012234 0.05541706 -0.007950768 -0.050941333 -0.03647855 -0.030703323 -0.00045590472
-0.044770584 -0.048813906 -0.04591751 -0.0025412135 -0.06678794 -0.03939137 -0.006757516 0.011626939
-0.00015983204 0.022567041 0.0012181259 -0.009756111 0.054859795 0.00847502 -0.006877391 -0.032798372
0.03364294 -0.01683288 -0.009246504 -0.026318707 -0.04016634 -0.05337291 -0.047899224 0.038809482
-0.06655708 -0.056467135 0.054154363 0.055152364 0.0011727534 0.001889078 0.037987582 -0.0045227855
0.048790324 -0.06756097 0.039533325 -0.012941321 0.043422237 -0.016403077 -0.060810547 0.045612462

network.2.bias f4 [256]
00000000: e81e 633d 8bc8 a63d aecb 25bc 2e5c 4fbc
00000010: d10d 51bd 2106 e13d 491d d43c a304 453d
00000020: 7402 bf3c bbf6 9ebd 38f6 bf3d 2789 b9bd
00000030: eadb 143d 2f82 a93c 0352 853c 6a5c 983d
00000040: 739c 5dbd f843 acbb 82a6 703d a230 f1bc
00000050: a2b2 823c 8300 073d a43d ed3d ea95 6cbd
00000060: 1280 60bc 0b22 c53c 15a2 76bb 3e98 8e3d
00000070: 0ee5 4ebc 0946 f83c 1ff6 6dbc 59f2 3f3d
00000080: b08b 88bc 25d0 c23d 30e1 8bbd d8a4 32bd
00000090: 7f34 c63d 0195 593c 1861 473d 7930 903d
000000a0: c382 163e 3270 9f3d 9858 df3c 5d2a 233d
000000b0: 6cd5 4c3d bb85 1a3e 897e 3cbd b282 5d3d
000000c0: 09c6 a0bd 311f 013e 9ec8 f03c 8845 773d
000000d0: dc2e 813d 56d8 17bb 2e74 0bbd 8d34 723d
000000e0: 6042 163d 3527 d33d 616c 1a3d 031e 723d
000000f0: 3cfa e53d 4038 033e 37d9 8bbc 2a68 be3d
00000100: d799 83bc 6751 c53d 2596 2e3e d4f4 ad3d
00000110: e422 393d f4bb 06bd 93a5 b53c 391c 923d
00000120: 1064 27bd 7cb4 363c cce5 0c3d 7b25 51bc
00000130: f6bf f23b c299 773c 2a1b bc3d 457f df3c
00000140: eb33 953d 81f4 133d 25e6 39bd c088 893d
00000150: 45d7 e3bc df0e 973b 6a4d f53d e47b 8cbd
00000160: dad4 2b3d 4cd0 b3bc 1d89 37bd 2ea2 4ebd
00000170: e806 4bbc bbd7 aa3c b368 1a3b 6a99 8cbd
00000180: b5b8 eabc a079 663c e112 e3bc d218 92bc
00000190: b32c 46bd 1019 3b3e 42af 6bbd 8c42 2a3e
000001a0: fbc7 88bd d2ad bd3c d7e4 f43c 7b51 1dbd
000001b0: 7345 883d 3853 92bd d396 34bd dd02 fbbc
000001c0: 1f3a 11bd a87a a83d 2fed 133e be89 f7bc
000001d0: 2b44 ba3d 7595 ff3c b012 203e 7962 ad3d
000001e0: 06fd b63d 5af8 a93c 1589 ebbd c3d9 31bd
000001f0: 9d5b 8c3d 0ec2 62bd 3048 1c3e 3ce7 54bd
00000200: 1245 52bc 36a5 8abc 761d 8f3b 4daa aa3d
00000210: 4293 98bd 629b 3bbc 3e03 18ba 253b 30bd
00000220: d164 43ba a373 d23c dadf 8f3d d6ed 3e3d
00000230: 6557 35bd c806 6c3d 903d 613b dc26 65bd
00000240: e573 bebd a0ac 2fbd 453b a6bb 7e5e f3bb
00000250: f2ba 2bbc 371d 53bd de9b fa3d 1d17 0dbd
00000260: 543f e2bb 1d09 d4bb 5c4e c93d 2c84 51bd
00000270: ab0c 683c 16c5 54bd 5b17 463c fd94 403c
00000280: b74b b5bc 5f77 7fbd d74d aa3d 0446 42bd
00000290: d136 1b3e 60eb 813c 5c73 0d3e 0064 e13c
000002a0: b214 603d 9035 e7bc 91ff 013e 77ef c63c
000002b0: 94e6 25bd 701a 3e3a 41c8 df3d 723e de3c
000002c0: 245d de3c 3c7c 58bb fdab 943b 9468 37bc
000002d0: b98e 6cbb ff12 b9bc 6689 e33a 8b48 e13c
000002e0: 8455 f93d 050a 4cbd ed7e ca3d 9b6c 333c
000002f0: 8016 86bc 4b15 233d 47ad 11bd b6fd bf3d
00000300: bd34 013d e253 d5bc dee5 57bd 2dce 353d
00000310: 12c6 78bc 7830 82bd d076 15bd 67cd fc3d
00000320: 7f0b 74bd 0f5f b43d 14f8 cd3d 48c2 433d
00000330: a436 e93c 3993 9a3d 284a 85bc 622d 3539
00000340: e1e5 e33d fc3c cabc e711 fc3c cec4 28bd
00000350: bd30 6c3d d161 123e ef86 6cbd 5876 463d
00000360: c1bf 0bbd aa31 553d 4017 27bd 767a 493d
00000370: 03aa 85bd 4991 353d 41b7 60bc f60b 6dbc
00000380: a1e8 033d 8d69 c7bb 31c7 093d 9034 463c
00000390: 4cc3 dc3d 2dda f83d 386e fa3c aa27 c03d
000003a0: 2466 2dbd 365a 3abd c3e3 2cbd fdaf 00bd
000003b0: f5c1 213c a89e e23d 4f4b 87bc 6f32 983d
000003c0: 0405 da3a 9d29 86bd 370b 82bd a958 0cbb
000003d0: a8bf bf3c 4f14 883d a8df a33c e959 5d3c
000003e0: 9ab7 903c b4b2 b7bd e100 2a3d 1315 20bc
000003f0: 05c7 f23a b507 fa3d dc39 173e e619 fe3d
0.055449396 0.08143719 -0.010119362 -0.012656255 -0.051038567 0.10987497 0.02589287 0.048100125
0.0233166 -0.07761904 0.093731344 -0.09059363 0.03634254 0.02069196 0.016274458 0.074395016
-0.05410428 -0.005257126 0.058752544 -0.029442135 0.01595432 0.032959472 0.11584023 -0.057760157
-0.013702409 0.024064085 -0.003763323 0.06962632 -0.012627853 0.030306833 -0.014524012 0.04686198
-0.01666817 0.09512357 -0.068300605 -0.04361424 0.096779816 0.013280154 0.04867658 0.070404954
0.14698319 0.077850714 0.027263924 0.039835323 0.050008222 0.15090077 -0.04601911 0.05407972
-0.07850272 0.12609555 0.029392537 0.060369045 0.06307766 -0.0023169718 -0.034046344 0.059132148
0.036684394 0.103102125 0.037701014 0.059110653 0.11229369 0.12814426 -0.01707135 0.092972115
-0.016064567 0.09634667 0.17049463 0.08493963 0.04519929 -0.03289409 0.022173679 0.07134289
-0.04086691 0.011151429 0.03439884 -0.012765284 0.0074081374 0.015112342 0.09184869 0.027282367
0.07285293 0.03612185 -0.0453855 0.06715536 -0.02781261 0.004609927 0.11977656 -0.06859568
0.041951038 -0.02194991 -0.044808496 -0.050447635 -0.012391783 0.020854821 0.002356094 -0.06865199
-0.028652528 0.014067084 -0.027718963 -0.0178341 -0.048382472 0.1827128 -0.057540186 0.16626948
-0.06678768 0.023154173 0.029894276 -0.038407784 0.066538714 -0.07144779 -0.04408915 -0.030641014
-0.03545582 0.0822652 0.14445947 -0.030217048 0.09095033 0.031199196 0.15632129 0.08466048
0.08934979 0.020748306 -0.11500756 -0.043420564 0.06853411 -0.055360846 0.15261912 -0.051978335
-0.01283385 -0.016924482 0.0043675257 0.083332635 -0.07449962 -0.01145062 -0.0005798823 -0.043025155
-0.00074536825 0.025689906 0.07025118 0.046613537 -0.0442728 0.057623655 0.003436897 -0.055945262
-0.09299449 -0.042889237 -0.0050729834 -0.007427036 -0.010481583 -0.051541533 0.122367606 -0.03444587
-0.006904522 -0.006470813 0.09829399 -0.05115144 0.0141631765 -0.05194577 0.012090529 0.011754272
-0.02213083 -0.0623697 0.08315628 -0.047430053 0.1515763 0.015859306 0.13813537 0.027513504
0.054707237 -0.028223783 0.12695147 0.024284108 -0.0405031 0.00072518643 0.10926867 0.027129386
0.027144022 -0.0033033034 0.004537104 -0.011194367 -0.0036095812 -0.022592066 0.0017359674 0.027500411
0.12174514 -0.049814243 0.098874904 0.0109511865 -0.01636815 0.03981523 -0.03556564 0.093745634
0.031544436 -0.026040975 -0.052709453 0.044386078 -0.015183942 -0.06356901 -0.03649026 0.12343865
-0.059581276 0.088071935 0.10057083 0.047792703 0.028468437 0.07547612 -0.016270712 0.00017278412
0.1112783 -0.024687283 0.030770255 -0.041203313 0.057663668 0.14295126 -0.05774587 0.048452705
-0.034118418 0.052049316 -0.040793657 0.049189053 -0.06526568 0.044328008 -0.013715566 -0.014468184
0.032204274 -0.0060855807 0.03363723 0.012097493 0.107794374 0.12150989 0.030570135 0.09382565
-0.042333737 -0.045496188 -0.042209398 -0.031417836 0.009872903 0.110654175 -0.016515402 0.074314944
0.0016633575 -0.06550906 -0.06349795 -0.002141515 0.023406819 0.066444986 0.020004109 0.013510206
0.017665673 -0.08969632 0.041504744 -0.0097706495 0.0018522447 0.12208501 0.14768165 0.124072835

network.4.weight f4 [3, 256]
00000000: 1884 1cbc 5631 023e 2246 b9bc 4c39 93ba
00000010: 6acd 0c3e 426e 3c3e e59a 2fbe e991 823b
00000020: df6d 87bd 0786 5fbc 4b68 0c3e a416 393c
00000030: e648 35bb 5bee 10bd 000c 4bbd 48de 383e
00000040: e1bd a6ba 1d2d cdbc 6e9e 2dbd af48 c1bc
00000050: 4c0e 103e e455 57be 54a8 363e 33c0 fd3b
00000060: 6eff ef3b ccc6 f4bc 6410 0ebd e87b 053e
00000070: 84a5 173d 72dd 413d d29c 09bc 65ad 50bd
00000080: bdfa 2c3c 9ae8 a73d c86b 023d b7ca 663c
00000090: c6e5 223e 18d2 21bd 50f1 04bc a1ef 8abd
000000a0: be92 1b3e 3321 60bd 2ea0 64bd 406d 31bb
000000b0: 33ff d23d 170a 053e 8a20 ab3c a76c ea3d
000000c0: 72d3 fa3b 291b 293e 41bc b4bc e28d 203e
000000d0: f10a ffbc 1141 41bd e9b7 92be 5420 203e
000000e0: f8c6 643a ce8f 4f3e 84c4 a8bd d102 24bd
000000f0: 5f7f 0d3e 78a6 123e e161 adbd 6ccb e03d
00000100: ae23 f73c 9fa2 123e 4d3b 1b3e 6878 4b3e
00000110: 1238 0cbd bc89 34bc 4e97 883b a33d 7cbc
00000120: 8da4 aabb 9130 c7be 8b01 09bd e8ef 803c
00000130: f1a8 e33c 4f5d b2bd c7ce 8dbd f451 043d
00000140: 18e4 093e 1f35 9dbd 0cb9 a4bd 13fd 0d3e
00000150: 8057 25bc f8ce 2abc 8726 193e bbf5 d3bc
00000160: 9070 7fbd dddc fd3c b6f9 1b3c d55a 803c
00000170: 5136 c6be 2285 12bd b174 063d 346c 323d
00000180: 582a 803d ab63 183e 9fb8 d8bd 1094 8e3b
00000190: 025c 6b3d c40f 2d3e 0690 c0bb 0bfb fd3d
000001a0: c4f1 a43b 707a 83bc 8f3e 65bd 968c 49be
000001b0: d810 fa3d a103 bb3a 9620 f0bb 8588 dbbd
000001c0: eb4e 923a e6b7 c43c 7eb7 d03d 0bb4 6d3d
000001d0: 1c52 14bd 76dc 293e 9a1d b13d 17ad f43d
000001e0: 9e04 fd3d e266 d2bc bf30 7cbc c557 413e
000001f0: 425e dabe a8b1 0bbe 42cc 2e3e 080a b73b
00000200: 25e9 acbc f36d d83c ccf5 17bc adf0 e63d
00000210: 27ff 723c c13f 12bd 0ba8 d43b f3db 7dbd
00000220: de17 bebb c178 d2bc 889f 0b3e 6cb9 53be
00000230: a019 3f3d 1228 8dbc d5a8 a6bc 5a19 81bc
00000240: 5bfc 34bc b764 c03c 4f7d 4cbc 793e a03b
00000250: c264 4f3c bd4f ac3d f377 343e 30c0 363b
00000260: 4f5f 033e 6d1f 8b3d b2f5 043e cbee d9bc
00000270: aec4 68bd 8f0a 73bd 85d6 dcbc 7eb5 673d
00000280: 857a 903d 0040 1ab7 2cd8 cd3d 1996 333c
00000290: 23d0 f53d 3370 71be 120e 0e3e 8158 233c
000002a0: 45ed 2c3e e896 1c3d 58b0 013e cef8 ae3c
000002b0: 4de3 e43c 0910 bb3c e6d8 073e 172b c8ba
000002c0: 660a 9bbd f2e0 da3d b237 d5be f11e 0dbd
000002d0: df1b 19be 15b7 fcbc 9127 ca3b ea19 e63d
000002e0: 5934 963d 5acf 29be fa8c e83d 0009 adbe
000002f0: 5235 03bd 5620 a3bd 8b3b e23d 6446 083e
00000300: e005 22bd 3c96 37bd df97 863b 6e70 d939
00000310: 2819 38be 13b8 4bbd 5f41 71bd 113f 3a3e
00000320: 9cbe debc c590 fb3d ede1 e13d 60aa 1bbd
00000330: 72bd 54ba 881d 833d cb62 3cbe d4ec 103d
00000340: 116f 033b 0e6a 8e3b fcaa bebc 482e 09bd
00000350: dc70 a8bb d142 3d3e 6f11 403d 3cac 1c3e
00000360: 37f6 983c e7a5 61bb 8b2b 163d 7744 cdbc
00000370: 0590 1abc b8ef fe3d 9d64 6ebc 5972 0e3d
00000380: 723d aebc 96f2 bfbc fc9e 32bc 3de5 fa3c
00000390: d55d e33d e24f 2abd cc8c 573d 1ea0 1a3e
000003a0: f585 13bd 4167 2b3d 2cbb 37bd 7a36 12bd
000003b0: 91be 183a 1c55 e33d e5c0 ae3c 61d0 2d3e
000003c0: f921 d6bc e1ec 9f3b 71a7 99bc a922 153e
000003d0: 5630 bcbe d8e6 263e 4c1c 06bd 07c2 dbbc
000003e0: 6f2a a0be c026 01bd 67c0 1ebd 2dc0 b53b
000003f0: 24ff 35bc 259b 2c3e 939d e53d bb2c 063e
-0.009552978 0.12714133 -0.02261645 -0.0011232286 0.13750234 0.18401435 -0.17148931 0.003984679
-0.06612753 -0.013642794 0.1371166 0.011296902 -0.002766186 -0.035383563 -0.04957199 0.18053544
-0.0012721383 -0.025045926 -0.04238742 -0.023594229 0.14067954 -0.21028858 0.1783765 0.007743859
0.0073241508 -0.02987995 -0.0346836 0.13035548 0.037023082 0.047330327 -0.008399205 -0.050946612
0.010557828 0.08198662 0.03184107 0.014086417 0.15907964 -0.039507 -0.008114174 -0.06783987
0.15192696 -0.05471916 -0.05581682 -0.0027073175 0.10302582 0.1299213 0.02088954 0.11446505
0.007654601 0.16514267 -0.022062423 0.15679124 -0.031133147 -0.047181193 -0.28655937 0.15637332
0.00087271584 0.20269701 -0.082406074 -0.04004175 0.1381812 0.14321315 -0.084659345 0.109763
0.03016838 0.14319848 0.1515934 0.1987015 -0.03423316 -0.011019167 0.0041684275 -0.015395555
-0.0052076043 -0.3890424 -0.033448737 0.015739396 0.027790518 -0.087092035 -0.06924205 0.03230472
0.13465917 -0.07676148 -0.080431074 0.13866071 -0.010091662 -0.010425322 0.14956103 -0.02587401
-0.062363207 0.030989105 0.009519985 0.015668312 -0.38713315 -0.035771497 0.03282613 0.04356022
0.062580764 0.1488177 -0.10582089 0.0043511465 0.057460792 0.16900545 -0.005876544 0.12401398
0.0050337035 -0.016049594 -0.055967864 -0.19682536 0.12210244 0.0014268049 -0.0073281033 -0.107193984
0.0011162435 0.02401347 0.10191248 0.05803303 -0.036211118 0.16588005 0.08648224 0.11947077
0.12354396 -0.025683824 -0.015392481 0.18881138 -0.42650038 -0.13641989 0.17070106 0.0055859126
-0.021107266 0.026419615 -0.009274911 0.11276374 0.014831341 -0.03570533 0.006489759 -0.061977338
-0.005801185 -0.025692346 0.13635075 -0.20676202 0.046655297 -0.017231021 -0.020344177 -0.015759159
-0.011046494 0.023485525 -0.012481048 0.00489026 0.0126583 0.08413646 0.17623882 0.0027885549
0.12829326 0.06793103 0.1298435 -0.026603123 -0.056828193 -0.05933624 -0.02695776 0.05656957
0.07054619 -9.1940165e-06 0.10050997 0.010961079 0.120025896 -0.23577957 0.13872555 0.009969831
0.16887386 0.038229853 0.12664926 0.021358874 0.027940417 0.022834795 0.13266334 -0.0015271631
-0.07570343 0.10687436 -0.41644055 -0.034453336 -0.14952038 -0.030849019 0.0061692675 0.112354115
0.07334203 -0.16583005 0.11355014 -0.3379593 -0.032033272 -0.07965152 0.11046513 0.13308102
-0.039556384 -0.04482101 0.00410746 0.00041473232 -0.17978346 -0.049736094 -0.058900233 0.1818812
-0.027190499 0.12283472 0.1102942 -0.03800428 -0.0008115388 0.06402117 -0.18397062 0.035382107
0.0020055214 0.004346139 -0.023274891 -0.033491403 -0.005140407 0.1848252 0.046891626 0.15300077
0.018672092 -0.003443116 0.03666262 -0.02505706 -0.009433751 0.124480665 -0.014550355 0.03477702
-0.021269534 -0.023431104 -0.010902163 0.030626887 0.111018814 -0.04158009 0.05262451 0.15100142
-0.036016423 0.041846517 -0.044856235 -0.035696484 0.00058267365 0.11100218 0.021332214 0.16974021
-0.026139246 0.004880533 -0.0187566 0.14564003 -0.36755627 0.16298997 -0.03274183 -0.026825918
-0.31282374 -0.031531096 -0.038757708 0.005546591 -0.011108194 0.16856058 0.112116955 0.13103001

network.4.bias f4 [3]
00000000: 0d81 b53d 97f1 113d 2c6d c83b
0.08862505 0.03563079 0.00611653
